{"class_name": "Model", "config": {"name": "model_6", "layers": [{"name": "input_7", "class_name": "InputLayer", "config": {"batch_input_shape": [null, 150, 150, 3], "dtype": "float32", "sparse": false, "name": "input_7"}, "inbound_nodes": []}, {"name": "conv2d_565", "class_name": "Conv2D", "config": {"name": "conv2d_565", "trainable": true, "filters": 32, "kernel_size": [3, 3], "strides": [2, 2], "padding": "valid", "data_format": "channels_last", "dilation_rate": [1, 1], "activation": "linear", "use_bias": false, "kernel_initializer": {"class_name": "VarianceScaling", "config": {"scale": 1.0, "mode": "fan_avg", "distribution": "uniform", "seed": null}}, "bias_initializer": {"class_name": "Zeros", "config": {}}, "kernel_regularizer": null, "bias_regularizer": null, "activity_regularizer": null, "kernel_constraint": null, "bias_constraint": null}, "inbound_nodes": [[["input_7", 0, 0, {}]]]}, {"name": "batch_normalization_565", "class_name": "BatchNormalization", "config": {"name": "batch_normalization_565", "trainable": true, "axis": 3, "momentum": 0.99, "epsilon": 0.001, "center": true, "scale": false, "beta_initializer": {"class_name": "Zeros", "config": {}}, "gamma_initializer": {"class_name": "Ones", "config": {}}, "moving_mean_initializer": {"class_name": "Zeros", "config": {}}, "moving_variance_initializer": {"class_name": "Ones", "config": {}}, "beta_regularizer": null, "gamma_regularizer": null, "beta_constraint": null, "gamma_constraint": null}, "inbound_nodes": [[["conv2d_565", 0, 0, {}]]]}, {"name": "activation_565", "class_name": "Activation", "config": {"name": "activation_565", "trainable": true, "activation": "relu"}, "inbound_nodes": [[["batch_normalization_565", 0, 0, {}]]]}, {"name": "conv2d_566", "class_name": "Conv2D", "config": {"name": "conv2d_566", "trainable": true, "filters": 32, "kernel_size": [3, 3], "strides": [1, 1], "padding": "valid", "data_format": "channels_last", "dilation_rate": [1, 1], "activation": "linear", "use_bias": false, "kernel_initializer": {"class_name": "VarianceScaling", "config": {"scale": 1.0, "mode": "fan_avg", "distribution": "uniform", "seed": null}}, "bias_initializer": {"class_name": "Zeros", "config": {}}, "kernel_regularizer": null, "bias_regularizer": null, "activity_regularizer": null, "kernel_constraint": null, "bias_constraint": null}, "inbound_nodes": [[["activation_565", 0, 0, {}]]]}, {"name": "batch_normalization_566", "class_name": "BatchNormalization", "config": {"name": "batch_normalization_566", "trainable": true, "axis": 3, "momentum": 0.99, "epsilon": 0.001, "center": true, "scale": false, "beta_initializer": {"class_name": "Zeros", "config": {}}, "gamma_initializer": {"class_name": "Ones", "config": {}}, "moving_mean_initializer": {"class_name": "Zeros", "config": {}}, "moving_variance_initializer": {"class_name": "Ones", "config": {}}, "beta_regularizer": null, "gamma_regularizer": null, "beta_constraint": null, "gamma_constraint": null}, "inbound_nodes": [[["conv2d_566", 0, 0, {}]]]}, {"name": "activation_566", "class_name": "Activation", "config": {"name": "activation_566", "trainable": true, "activation": "relu"}, "inbound_nodes": [[["batch_normalization_566", 0, 0, {}]]]}, {"name": "conv2d_567", "class_name": "Conv2D", "config": {"name": "conv2d_567", "trainable": true, "filters": 64, "kernel_size": [3, 3], "strides": [1, 1], "padding": "same", "data_format": "channels_last", "dilation_rate": [1, 1], "activation": "linear", "use_bias": false, "kernel_initializer": {"class_name": "VarianceScaling", "config": {"scale": 1.0, "mode": "fan_avg", "distribution": "uniform", "seed": null}}, "bias_initializer": {"class_name": "Zeros", "config": {}}, "kernel_regularizer": null, "bias_regularizer": null, "activity_regularizer": null, "kernel_constraint": null, "bias_constraint": null}, "inbound_nodes": [[["activation_566", 0, 0, {}]]]}, {"name": "batch_normalization_567", "class_name": "BatchNormalization", "config": {"name": "batch_normalization_567", "trainable": true, "axis": 3, "momentum": 0.99, "epsilon": 0.001, "center": true, "scale": false, "beta_initializer": {"class_name": "Zeros", "config": {}}, "gamma_initializer": {"class_name": "Ones", "config": {}}, "moving_mean_initializer": {"class_name": "Zeros", "config": {}}, "moving_variance_initializer": {"class_name": "Ones", "config": {}}, "beta_regularizer": null, "gamma_regularizer": null, "beta_constraint": null, "gamma_constraint": null}, "inbound_nodes": [[["conv2d_567", 0, 0, {}]]]}, {"name": "activation_567", "class_name": "Activation", "config": {"name": "activation_567", "trainable": true, "activation": "relu"}, "inbound_nodes": [[["batch_normalization_567", 0, 0, {}]]]}, {"name": "max_pooling2d_25", "class_name": "MaxPooling2D", "config": {"name": "max_pooling2d_25", "trainable": true, "pool_size": [3, 3], "padding": "valid", "strides": [2, 2], "data_format": "channels_last"}, "inbound_nodes": [[["activation_567", 0, 0, {}]]]}, {"name": "conv2d_568", "class_name": "Conv2D", "config": {"name": "conv2d_568", "trainable": true, "filters": 80, "kernel_size": [1, 1], "strides": [1, 1], "padding": "valid", "data_format": "channels_last", "dilation_rate": [1, 1], "activation": "linear", "use_bias": false, "kernel_initializer": {"class_name": "VarianceScaling", "config": {"scale": 1.0, "mode": "fan_avg", "distribution": "uniform", "seed": null}}, "bias_initializer": {"class_name": "Zeros", "config": {}}, "kernel_regularizer": null, "bias_regularizer": null, "activity_regularizer": null, "kernel_constraint": null, "bias_constraint": null}, "inbound_nodes": [[["max_pooling2d_25", 0, 0, {}]]]}, {"name": "batch_normalization_568", "class_name": "BatchNormalization", "config": {"name": "batch_normalization_568", "trainable": true, "axis": 3, "momentum": 0.99, "epsilon": 0.001, "center": true, "scale": false, "beta_initializer": {"class_name": "Zeros", "config": {}}, "gamma_initializer": {"class_name": "Ones", "config": {}}, "moving_mean_initializer": {"class_name": "Zeros", "config": {}}, "moving_variance_initializer": {"class_name": "Ones", "config": {}}, "beta_regularizer": null, "gamma_regularizer": null, "beta_constraint": null, "gamma_constraint": null}, "inbound_nodes": [[["conv2d_568", 0, 0, {}]]]}, {"name": "activation_568", "class_name": "Activation", "config": {"name": "activation_568", "trainable": true, "activation": "relu"}, "inbound_nodes": [[["batch_normalization_568", 0, 0, {}]]]}, {"name": "conv2d_569", "class_name": "Conv2D", "config": {"name": "conv2d_569", "trainable": true, "filters": 192, "kernel_size": [3, 3], "strides": [1, 1], "padding": "valid", "data_format": "channels_last", "dilation_rate": [1, 1], "activation": "linear", "use_bias": false, "kernel_initializer": {"class_name": "VarianceScaling", "config": {"scale": 1.0, "mode": "fan_avg", "distribution": "uniform", "seed": null}}, "bias_initializer": {"class_name": "Zeros", "config": {}}, "kernel_regularizer": null, "bias_regularizer": null, "activity_regularizer": null, "kernel_constraint": null, "bias_constraint": null}, "inbound_nodes": [[["activation_568", 0, 0, {}]]]}, {"name": "batch_normalization_569", "class_name": "BatchNormalization", "config": {"name": "batch_normalization_569", "trainable": true, "axis": 3, "momentum": 0.99, "epsilon": 0.001, "center": true, "scale": false, "beta_initializer": {"class_name": "Zeros", "config": {}}, "gamma_initializer": {"class_name": "Ones", "config": {}}, "moving_mean_initializer": {"class_name": "Zeros", "config": {}}, "moving_variance_initializer": {"class_name": "Ones", "config": {}}, "beta_regularizer": null, "gamma_regularizer": null, "beta_constraint": null, "gamma_constraint": null}, "inbound_nodes": [[["conv2d_569", 0, 0, {}]]]}, {"name": "activation_569", "class_name": "Activation", "config": {"name": "activation_569", "trainable": true, "activation": "relu"}, "inbound_nodes": [[["batch_normalization_569", 0, 0, {}]]]}, {"name": "max_pooling2d_26", "class_name": "MaxPooling2D", "config": {"name": "max_pooling2d_26", "trainable": true, "pool_size": [3, 3], "padding": "valid", "strides": [2, 2], "data_format": "channels_last"}, "inbound_nodes": [[["activation_569", 0, 0, {}]]]}, {"name": "conv2d_573", "class_name": "Conv2D", "config": {"name": "conv2d_573", "trainable": true, "filters": 64, "kernel_size": [1, 1], "strides": [1, 1], "padding": "same", "data_format": "channels_last", "dilation_rate": [1, 1], "activation": "linear", "use_bias": false, "kernel_initializer": {"class_name": "VarianceScaling", "config": {"scale": 1.0, "mode": "fan_avg", "distribution": "uniform", "seed": null}}, "bias_initializer": {"class_name": "Zeros", "config": {}}, "kernel_regularizer": null, "bias_regularizer": null, "activity_regularizer": null, "kernel_constraint": null, "bias_constraint": null}, "inbound_nodes": [[["max_pooling2d_26", 0, 0, {}]]]}, {"name": "batch_normalization_573", "class_name": "BatchNormalization", "config": {"name": "batch_normalization_573", "trainable": true, "axis": 3, "momentum": 0.99, "epsilon": 0.001, "center": true, "scale": false, "beta_initializer": {"class_name": "Zeros", "config": {}}, "gamma_initializer": {"class_name": "Ones", "config": {}}, "moving_mean_initializer": {"class_name": "Zeros", "config": {}}, "moving_variance_initializer": {"class_name": "Ones", "config": {}}, "beta_regularizer": null, "gamma_regularizer": null, "beta_constraint": null, "gamma_constraint": null}, "inbound_nodes": [[["conv2d_573", 0, 0, {}]]]}, {"name": "activation_573", "class_name": "Activation", "config": {"name": "activation_573", "trainable": true, "activation": "relu"}, "inbound_nodes": [[["batch_normalization_573", 0, 0, {}]]]}, {"name": "conv2d_571", "class_name": "Conv2D", "config": {"name": "conv2d_571", "trainable": true, "filters": 48, "kernel_size": [1, 1], "strides": [1, 1], "padding": "same", "data_format": "channels_last", "dilation_rate": [1, 1], "activation": "linear", "use_bias": false, "kernel_initializer": {"class_name": "VarianceScaling", "config": {"scale": 1.0, "mode": "fan_avg", "distribution": "uniform", "seed": null}}, "bias_initializer": {"class_name": "Zeros", "config": {}}, "kernel_regularizer": null, "bias_regularizer": null, "activity_regularizer": null, "kernel_constraint": null, "bias_constraint": null}, "inbound_nodes": [[["max_pooling2d_26", 0, 0, {}]]]}, {"name": "conv2d_574", "class_name": "Conv2D", "config": {"name": "conv2d_574", "trainable": true, "filters": 96, "kernel_size": [3, 3], "strides": [1, 1], "padding": "same", "data_format": "channels_last", "dilation_rate": [1, 1], "activation": "linear", "use_bias": false, "kernel_initializer": {"class_name": "VarianceScaling", "config": {"scale": 1.0, "mode": "fan_avg", "distribution": "uniform", "seed": null}}, "bias_initializer": {"class_name": "Zeros", "config": {}}, "kernel_regularizer": null, "bias_regularizer": null, "activity_regularizer": null, "kernel_constraint": null, "bias_constraint": null}, "inbound_nodes": [[["activation_573", 0, 0, {}]]]}, {"name": "batch_normalization_571", "class_name": "BatchNormalization", "config": {"name": "batch_normalization_571", "trainable": true, "axis": 3, "momentum": 0.99, "epsilon": 0.001, "center": true, "scale": false, "beta_initializer": {"class_name": "Zeros", "config": {}}, "gamma_initializer": {"class_name": "Ones", "config": {}}, "moving_mean_initializer": {"class_name": "Zeros", "config": {}}, "moving_variance_initializer": {"class_name": "Ones", "config": {}}, "beta_regularizer": null, "gamma_regularizer": null, "beta_constraint": null, "gamma_constraint": null}, "inbound_nodes": [[["conv2d_571", 0, 0, {}]]]}, {"name": "batch_normalization_574", "class_name": "BatchNormalization", "config": {"name": "batch_normalization_574", "trainable": true, "axis": 3, "momentum": 0.99, "epsilon": 0.001, "center": true, "scale": false, "beta_initializer": {"class_name": "Zeros", "config": {}}, "gamma_initializer": {"class_name": "Ones", "config": {}}, "moving_mean_initializer": {"class_name": "Zeros", "config": {}}, "moving_variance_initializer": {"class_name": "Ones", "config": {}}, "beta_regularizer": null, "gamma_regularizer": null, "beta_constraint": null, "gamma_constraint": null}, "inbound_nodes": [[["conv2d_574", 0, 0, {}]]]}, {"name": "activation_571", "class_name": "Activation", "config": {"name": "activation_571", "trainable": true, "activation": "relu"}, "inbound_nodes": [[["batch_normalization_571", 0, 0, {}]]]}, {"name": "activation_574", "class_name": "Activation", "config": {"name": "activation_574", "trainable": true, "activation": "relu"}, "inbound_nodes": [[["batch_normalization_574", 0, 0, {}]]]}, {"name": "average_pooling2d_55", "class_name": "AveragePooling2D", "config": {"name": "average_pooling2d_55", "trainable": true, "pool_size": [3, 3], "padding": "same", "strides": [1, 1], "data_format": "channels_last"}, "inbound_nodes": [[["max_pooling2d_26", 0, 0, {}]]]}, {"name": "conv2d_570", "class_name": "Conv2D", "config": {"name": "conv2d_570", "trainable": true, "filters": 64, "kernel_size": [1, 1], "strides": [1, 1], "padding": "same", "data_format": "channels_last", "dilation_rate": [1, 1], "activation": "linear", "use_bias": false, "kernel_initializer": {"class_name": "VarianceScaling", "config": {"scale": 1.0, "mode": "fan_avg", "distribution": "uniform", "seed": null}}, "bias_initializer": {"class_name": "Zeros", "config": {}}, "kernel_regularizer": null, "bias_regularizer": null, "activity_regularizer": null, "kernel_constraint": null, "bias_constraint": null}, "inbound_nodes": [[["max_pooling2d_26", 0, 0, {}]]]}, {"name": "conv2d_572", "class_name": "Conv2D", "config": {"name": "conv2d_572", "trainable": true, "filters": 64, "kernel_size": [5, 5], "strides": [1, 1], "padding": "same", "data_format": "channels_last", "dilation_rate": [1, 1], "activation": "linear", "use_bias": false, "kernel_initializer": {"class_name": "VarianceScaling", "config": {"scale": 1.0, "mode": "fan_avg", "distribution": "uniform", "seed": null}}, "bias_initializer": {"class_name": "Zeros", "config": {}}, "kernel_regularizer": null, "bias_regularizer": null, "activity_regularizer": null, "kernel_constraint": null, "bias_constraint": null}, "inbound_nodes": [[["activation_571", 0, 0, {}]]]}, {"name": "conv2d_575", "class_name": "Conv2D", "config": {"name": "conv2d_575", "trainable": true, "filters": 96, "kernel_size": [3, 3], "strides": [1, 1], "padding": "same", "data_format": "channels_last", "dilation_rate": [1, 1], "activation": "linear", "use_bias": false, "kernel_initializer": {"class_name": "VarianceScaling", "config": {"scale": 1.0, "mode": "fan_avg", "distribution": "uniform", "seed": null}}, "bias_initializer": {"class_name": "Zeros", "config": {}}, "kernel_regularizer": null, "bias_regularizer": null, "activity_regularizer": null, "kernel_constraint": null, "bias_constraint": null}, "inbound_nodes": [[["activation_574", 0, 0, {}]]]}, {"name": "conv2d_576", "class_name": "Conv2D", "config": {"name": "conv2d_576", "trainable": true, "filters": 32, "kernel_size": [1, 1], "strides": [1, 1], "padding": "same", "data_format": "channels_last", "dilation_rate": [1, 1], "activation": "linear", "use_bias": false, "kernel_initializer": {"class_name": "VarianceScaling", "config": {"scale": 1.0, "mode": "fan_avg", "distribution": "uniform", "seed": null}}, "bias_initializer": {"class_name": "Zeros", "config": {}}, "kernel_regularizer": null, "bias_regularizer": null, "activity_regularizer": null, "kernel_constraint": null, "bias_constraint": null}, "inbound_nodes": [[["average_pooling2d_55", 0, 0, {}]]]}, {"name": "batch_normalization_570", "class_name": "BatchNormalization", "config": {"name": "batch_normalization_570", "trainable": true, "axis": 3, "momentum": 0.99, "epsilon": 0.001, "center": true, "scale": false, "beta_initializer": {"class_name": "Zeros", "config": {}}, "gamma_initializer": {"class_name": "Ones", "config": {}}, "moving_mean_initializer": {"class_name": "Zeros", "config": {}}, "moving_variance_initializer": {"class_name": "Ones", "config": {}}, "beta_regularizer": null, "gamma_regularizer": null, "beta_constraint": null, "gamma_constraint": null}, "inbound_nodes": [[["conv2d_570", 0, 0, {}]]]}, {"name": "batch_normalization_572", "class_name": "BatchNormalization", "config": {"name": "batch_normalization_572", "trainable": true, "axis": 3, "momentum": 0.99, "epsilon": 0.001, "center": true, "scale": false, "beta_initializer": {"class_name": "Zeros", "config": {}}, "gamma_initializer": {"class_name": "Ones", "config": {}}, "moving_mean_initializer": {"class_name": "Zeros", "config": {}}, "moving_variance_initializer": {"class_name": "Ones", "config": {}}, "beta_regularizer": null, "gamma_regularizer": null, "beta_constraint": null, "gamma_constraint": null}, "inbound_nodes": [[["conv2d_572", 0, 0, {}]]]}, {"name": "batch_normalization_575", "class_name": "BatchNormalization", "config": {"name": "batch_normalization_575", "trainable": true, "axis": 3, "momentum": 0.99, "epsilon": 0.001, "center": true, "scale": false, "beta_initializer": {"class_name": "Zeros", "config": {}}, "gamma_initializer": {"class_name": "Ones", "config": {}}, "moving_mean_initializer": {"class_name": "Zeros", "config": {}}, "moving_variance_initializer": {"class_name": "Ones", "config": {}}, "beta_regularizer": null, "gamma_regularizer": null, "beta_constraint": null, "gamma_constraint": null}, "inbound_nodes": [[["conv2d_575", 0, 0, {}]]]}, {"name": "batch_normalization_576", "class_name": "BatchNormalization", "config": {"name": "batch_normalization_576", "trainable": true, "axis": 3, "momentum": 0.99, "epsilon": 0.001, "center": true, "scale": false, "beta_initializer": {"class_name": "Zeros", "config": {}}, "gamma_initializer": {"class_name": "Ones", "config": {}}, "moving_mean_initializer": {"class_name": "Zeros", "config": {}}, "moving_variance_initializer": {"class_name": "Ones", "config": {}}, "beta_regularizer": null, "gamma_regularizer": null, "beta_constraint": null, "gamma_constraint": null}, "inbound_nodes": [[["conv2d_576", 0, 0, {}]]]}, {"name": "activation_570", "class_name": "Activation", "config": {"name": "activation_570", "trainable": true, "activation": "relu"}, "inbound_nodes": [[["batch_normalization_570", 0, 0, {}]]]}, {"name": "activation_572", "class_name": "Activation", "config": {"name": "activation_572", "trainable": true, "activation": "relu"}, "inbound_nodes": [[["batch_normalization_572", 0, 0, {}]]]}, {"name": "activation_575", "class_name": "Activation", "config": {"name": "activation_575", "trainable": true, "activation": "relu"}, "inbound_nodes": [[["batch_normalization_575", 0, 0, {}]]]}, {"name": "activation_576", "class_name": "Activation", "config": {"name": "activation_576", "trainable": true, "activation": "relu"}, "inbound_nodes": [[["batch_normalization_576", 0, 0, {}]]]}, {"name": "mixed0", "class_name": "Concatenate", "config": {"name": "mixed0", "trainable": true, "axis": 3}, "inbound_nodes": [[["activation_570", 0, 0, {}], ["activation_572", 0, 0, {}], ["activation_575", 0, 0, {}], ["activation_576", 0, 0, {}]]]}, {"name": "conv2d_580", "class_name": "Conv2D", "config": {"name": "conv2d_580", "trainable": true, "filters": 64, "kernel_size": [1, 1], "strides": [1, 1], "padding": "same", "data_format": "channels_last", "dilation_rate": [1, 1], "activation": "linear", "use_bias": false, "kernel_initializer": {"class_name": "VarianceScaling", "config": {"scale": 1.0, "mode": "fan_avg", "distribution": "uniform", "seed": null}}, "bias_initializer": {"class_name": "Zeros", "config": {}}, "kernel_regularizer": null, "bias_regularizer": null, "activity_regularizer": null, "kernel_constraint": null, "bias_constraint": null}, "inbound_nodes": [[["mixed0", 0, 0, {}]]]}, {"name": "batch_normalization_580", "class_name": "BatchNormalization", "config": {"name": "batch_normalization_580", "trainable": true, "axis": 3, "momentum": 0.99, "epsilon": 0.001, "center": true, "scale": false, "beta_initializer": {"class_name": "Zeros", "config": {}}, "gamma_initializer": {"class_name": "Ones", "config": {}}, "moving_mean_initializer": {"class_name": "Zeros", "config": {}}, "moving_variance_initializer": {"class_name": "Ones", "config": {}}, "beta_regularizer": null, "gamma_regularizer": null, "beta_constraint": null, "gamma_constraint": null}, "inbound_nodes": [[["conv2d_580", 0, 0, {}]]]}, {"name": "activation_580", "class_name": "Activation", "config": {"name": "activation_580", "trainable": true, "activation": "relu"}, "inbound_nodes": [[["batch_normalization_580", 0, 0, {}]]]}, {"name": "conv2d_578", "class_name": "Conv2D", "config": {"name": "conv2d_578", "trainable": true, "filters": 48, "kernel_size": [1, 1], "strides": [1, 1], "padding": "same", "data_format": "channels_last", "dilation_rate": [1, 1], "activation": "linear", "use_bias": false, "kernel_initializer": {"class_name": "VarianceScaling", "config": {"scale": 1.0, "mode": "fan_avg", "distribution": "uniform", "seed": null}}, "bias_initializer": {"class_name": "Zeros", "config": {}}, "kernel_regularizer": null, "bias_regularizer": null, "activity_regularizer": null, "kernel_constraint": null, "bias_constraint": null}, "inbound_nodes": [[["mixed0", 0, 0, {}]]]}, {"name": "conv2d_581", "class_name": "Conv2D", "config": {"name": "conv2d_581", "trainable": true, "filters": 96, "kernel_size": [3, 3], "strides": [1, 1], "padding": "same", "data_format": "channels_last", "dilation_rate": [1, 1], "activation": "linear", "use_bias": false, "kernel_initializer": {"class_name": "VarianceScaling", "config": {"scale": 1.0, "mode": "fan_avg", "distribution": "uniform", "seed": null}}, "bias_initializer": {"class_name": "Zeros", "config": {}}, "kernel_regularizer": null, "bias_regularizer": null, "activity_regularizer": null, "kernel_constraint": null, "bias_constraint": null}, "inbound_nodes": [[["activation_580", 0, 0, {}]]]}, {"name": "batch_normalization_578", "class_name": "BatchNormalization", "config": {"name": "batch_normalization_578", "trainable": true, "axis": 3, "momentum": 0.99, "epsilon": 0.001, "center": true, "scale": false, "beta_initializer": {"class_name": "Zeros", "config": {}}, "gamma_initializer": {"class_name": "Ones", "config": {}}, "moving_mean_initializer": {"class_name": "Zeros", "config": {}}, "moving_variance_initializer": {"class_name": "Ones", "config": {}}, "beta_regularizer": null, "gamma_regularizer": null, "beta_constraint": null, "gamma_constraint": null}, "inbound_nodes": [[["conv2d_578", 0, 0, {}]]]}, {"name": "batch_normalization_581", "class_name": "BatchNormalization", "config": {"name": "batch_normalization_581", "trainable": true, "axis": 3, "momentum": 0.99, "epsilon": 0.001, "center": true, "scale": false, "beta_initializer": {"class_name": "Zeros", "config": {}}, "gamma_initializer": {"class_name": "Ones", "config": {}}, "moving_mean_initializer": {"class_name": "Zeros", "config": {}}, "moving_variance_initializer": {"class_name": "Ones", "config": {}}, "beta_regularizer": null, "gamma_regularizer": null, "beta_constraint": null, "gamma_constraint": null}, "inbound_nodes": [[["conv2d_581", 0, 0, {}]]]}, {"name": "activation_578", "class_name": "Activation", "config": {"name": "activation_578", "trainable": true, "activation": "relu"}, "inbound_nodes": [[["batch_normalization_578", 0, 0, {}]]]}, {"name": "activation_581", "class_name": "Activation", "config": {"name": "activation_581", "trainable": true, "activation": "relu"}, "inbound_nodes": [[["batch_normalization_581", 0, 0, {}]]]}, {"name": "average_pooling2d_56", "class_name": "AveragePooling2D", "config": {"name": "average_pooling2d_56", "trainable": true, "pool_size": [3, 3], "padding": "same", "strides": [1, 1], "data_format": "channels_last"}, "inbound_nodes": [[["mixed0", 0, 0, {}]]]}, {"name": "conv2d_577", "class_name": "Conv2D", "config": {"name": "conv2d_577", "trainable": true, "filters": 64, "kernel_size": [1, 1], "strides": [1, 1], "padding": "same", "data_format": "channels_last", "dilation_rate": [1, 1], "activation": "linear", "use_bias": false, "kernel_initializer": {"class_name": "VarianceScaling", "config": {"scale": 1.0, "mode": "fan_avg", "distribution": "uniform", "seed": null}}, "bias_initializer": {"class_name": "Zeros", "config": {}}, "kernel_regularizer": null, "bias_regularizer": null, "activity_regularizer": null, "kernel_constraint": null, "bias_constraint": null}, "inbound_nodes": [[["mixed0", 0, 0, {}]]]}, {"name": "conv2d_579", "class_name": "Conv2D", "config": {"name": "conv2d_579", "trainable": true, "filters": 64, "kernel_size": [5, 5], "strides": [1, 1], "padding": "same", "data_format": "channels_last", "dilation_rate": [1, 1], "activation": "linear", "use_bias": false, "kernel_initializer": {"class_name": "VarianceScaling", "config": {"scale": 1.0, "mode": "fan_avg", "distribution": "uniform", "seed": null}}, "bias_initializer": {"class_name": "Zeros", "config": {}}, "kernel_regularizer": null, "bias_regularizer": null, "activity_regularizer": null, "kernel_constraint": null, "bias_constraint": null}, "inbound_nodes": [[["activation_578", 0, 0, {}]]]}, {"name": "conv2d_582", "class_name": "Conv2D", "config": {"name": "conv2d_582", "trainable": true, "filters": 96, "kernel_size": [3, 3], "strides": [1, 1], "padding": "same", "data_format": "channels_last", "dilation_rate": [1, 1], "activation": "linear", "use_bias": false, "kernel_initializer": {"class_name": "VarianceScaling", "config": {"scale": 1.0, "mode": "fan_avg", "distribution": "uniform", "seed": null}}, "bias_initializer": {"class_name": "Zeros", "config": {}}, "kernel_regularizer": null, "bias_regularizer": null, "activity_regularizer": null, "kernel_constraint": null, "bias_constraint": null}, "inbound_nodes": [[["activation_581", 0, 0, {}]]]}, {"name": "conv2d_583", "class_name": "Conv2D", "config": {"name": "conv2d_583", "trainable": true, "filters": 64, "kernel_size": [1, 1], "strides": [1, 1], "padding": "same", "data_format": "channels_last", "dilation_rate": [1, 1], "activation": "linear", "use_bias": false, "kernel_initializer": {"class_name": "VarianceScaling", "config": {"scale": 1.0, "mode": "fan_avg", "distribution": "uniform", "seed": null}}, "bias_initializer": {"class_name": "Zeros", "config": {}}, "kernel_regularizer": null, "bias_regularizer": null, "activity_regularizer": null, "kernel_constraint": null, "bias_constraint": null}, "inbound_nodes": [[["average_pooling2d_56", 0, 0, {}]]]}, {"name": "batch_normalization_577", "class_name": "BatchNormalization", "config": {"name": "batch_normalization_577", "trainable": true, "axis": 3, "momentum": 0.99, "epsilon": 0.001, "center": true, "scale": false, "beta_initializer": {"class_name": "Zeros", "config": {}}, "gamma_initializer": {"class_name": "Ones", "config": {}}, "moving_mean_initializer": {"class_name": "Zeros", "config": {}}, "moving_variance_initializer": {"class_name": "Ones", "config": {}}, "beta_regularizer": null, "gamma_regularizer": null, "beta_constraint": null, "gamma_constraint": null}, "inbound_nodes": [[["conv2d_577", 0, 0, {}]]]}, {"name": "batch_normalization_579", "class_name": "BatchNormalization", "config": {"name": "batch_normalization_579", "trainable": true, "axis": 3, "momentum": 0.99, "epsilon": 0.001, "center": true, "scale": false, "beta_initializer": {"class_name": "Zeros", "config": {}}, "gamma_initializer": {"class_name": "Ones", "config": {}}, "moving_mean_initializer": {"class_name": "Zeros", "config": {}}, "moving_variance_initializer": {"class_name": "Ones", "config": {}}, "beta_regularizer": null, "gamma_regularizer": null, "beta_constraint": null, "gamma_constraint": null}, "inbound_nodes": [[["conv2d_579", 0, 0, {}]]]}, {"name": "batch_normalization_582", "class_name": "BatchNormalization", "config": {"name": "batch_normalization_582", "trainable": true, "axis": 3, "momentum": 0.99, "epsilon": 0.001, "center": true, "scale": false, "beta_initializer": {"class_name": "Zeros", "config": {}}, "gamma_initializer": {"class_name": "Ones", "config": {}}, "moving_mean_initializer": {"class_name": "Zeros", "config": {}}, "moving_variance_initializer": {"class_name": "Ones", "config": {}}, "beta_regularizer": null, "gamma_regularizer": null, "beta_constraint": null, "gamma_constraint": null}, "inbound_nodes": [[["conv2d_582", 0, 0, {}]]]}, {"name": "batch_normalization_583", "class_name": "BatchNormalization", "config": {"name": "batch_normalization_583", "trainable": true, "axis": 3, "momentum": 0.99, "epsilon": 0.001, "center": true, "scale": false, "beta_initializer": {"class_name": "Zeros", "config": {}}, "gamma_initializer": {"class_name": "Ones", "config": {}}, "moving_mean_initializer": {"class_name": "Zeros", "config": {}}, "moving_variance_initializer": {"class_name": "Ones", "config": {}}, "beta_regularizer": null, "gamma_regularizer": null, "beta_constraint": null, "gamma_constraint": null}, "inbound_nodes": [[["conv2d_583", 0, 0, {}]]]}, {"name": "activation_577", "class_name": "Activation", "config": {"name": "activation_577", "trainable": true, "activation": "relu"}, "inbound_nodes": [[["batch_normalization_577", 0, 0, {}]]]}, {"name": "activation_579", "class_name": "Activation", "config": {"name": "activation_579", "trainable": true, "activation": "relu"}, "inbound_nodes": [[["batch_normalization_579", 0, 0, {}]]]}, {"name": "activation_582", "class_name": "Activation", "config": {"name": "activation_582", "trainable": true, "activation": "relu"}, "inbound_nodes": [[["batch_normalization_582", 0, 0, {}]]]}, {"name": "activation_583", "class_name": "Activation", "config": {"name": "activation_583", "trainable": true, "activation": "relu"}, "inbound_nodes": [[["batch_normalization_583", 0, 0, {}]]]}, {"name": "mixed1", "class_name": "Concatenate", "config": {"name": "mixed1", "trainable": true, "axis": 3}, "inbound_nodes": [[["activation_577", 0, 0, {}], ["activation_579", 0, 0, {}], ["activation_582", 0, 0, {}], ["activation_583", 0, 0, {}]]]}, {"name": "conv2d_587", "class_name": "Conv2D", "config": {"name": "conv2d_587", "trainable": true, "filters": 64, "kernel_size": [1, 1], "strides": [1, 1], "padding": "same", "data_format": "channels_last", "dilation_rate": [1, 1], "activation": "linear", "use_bias": false, "kernel_initializer": {"class_name": "VarianceScaling", "config": {"scale": 1.0, "mode": "fan_avg", "distribution": "uniform", "seed": null}}, "bias_initializer": {"class_name": "Zeros", "config": {}}, "kernel_regularizer": null, "bias_regularizer": null, "activity_regularizer": null, "kernel_constraint": null, "bias_constraint": null}, "inbound_nodes": [[["mixed1", 0, 0, {}]]]}, {"name": "batch_normalization_587", "class_name": "BatchNormalization", "config": {"name": "batch_normalization_587", "trainable": true, "axis": 3, "momentum": 0.99, "epsilon": 0.001, "center": true, "scale": false, "beta_initializer": {"class_name": "Zeros", "config": {}}, "gamma_initializer": {"class_name": "Ones", "config": {}}, "moving_mean_initializer": {"class_name": "Zeros", "config": {}}, "moving_variance_initializer": {"class_name": "Ones", "config": {}}, "beta_regularizer": null, "gamma_regularizer": null, "beta_constraint": null, "gamma_constraint": null}, "inbound_nodes": [[["conv2d_587", 0, 0, {}]]]}, {"name": "activation_587", "class_name": "Activation", "config": {"name": "activation_587", "trainable": true, "activation": "relu"}, "inbound_nodes": [[["batch_normalization_587", 0, 0, {}]]]}, {"name": "conv2d_585", "class_name": "Conv2D", "config": {"name": "conv2d_585", "trainable": true, "filters": 48, "kernel_size": [1, 1], "strides": [1, 1], "padding": "same", "data_format": "channels_last", "dilation_rate": [1, 1], "activation": "linear", "use_bias": false, "kernel_initializer": {"class_name": "VarianceScaling", "config": {"scale": 1.0, "mode": "fan_avg", "distribution": "uniform", "seed": null}}, "bias_initializer": {"class_name": "Zeros", "config": {}}, "kernel_regularizer": null, "bias_regularizer": null, "activity_regularizer": null, "kernel_constraint": null, "bias_constraint": null}, "inbound_nodes": [[["mixed1", 0, 0, {}]]]}, {"name": "conv2d_588", "class_name": "Conv2D", "config": {"name": "conv2d_588", "trainable": true, "filters": 96, "kernel_size": [3, 3], "strides": [1, 1], "padding": "same", "data_format": "channels_last", "dilation_rate": [1, 1], "activation": "linear", "use_bias": false, "kernel_initializer": {"class_name": "VarianceScaling", "config": {"scale": 1.0, "mode": "fan_avg", "distribution": "uniform", "seed": null}}, "bias_initializer": {"class_name": "Zeros", "config": {}}, "kernel_regularizer": null, "bias_regularizer": null, "activity_regularizer": null, "kernel_constraint": null, "bias_constraint": null}, "inbound_nodes": [[["activation_587", 0, 0, {}]]]}, {"name": "batch_normalization_585", "class_name": "BatchNormalization", "config": {"name": "batch_normalization_585", "trainable": true, "axis": 3, "momentum": 0.99, "epsilon": 0.001, "center": true, "scale": false, "beta_initializer": {"class_name": "Zeros", "config": {}}, "gamma_initializer": {"class_name": "Ones", "config": {}}, "moving_mean_initializer": {"class_name": "Zeros", "config": {}}, "moving_variance_initializer": {"class_name": "Ones", "config": {}}, "beta_regularizer": null, "gamma_regularizer": null, "beta_constraint": null, "gamma_constraint": null}, "inbound_nodes": [[["conv2d_585", 0, 0, {}]]]}, {"name": "batch_normalization_588", "class_name": "BatchNormalization", "config": {"name": "batch_normalization_588", "trainable": true, "axis": 3, "momentum": 0.99, "epsilon": 0.001, "center": true, "scale": false, "beta_initializer": {"class_name": "Zeros", "config": {}}, "gamma_initializer": {"class_name": "Ones", "config": {}}, "moving_mean_initializer": {"class_name": "Zeros", "config": {}}, "moving_variance_initializer": {"class_name": "Ones", "config": {}}, "beta_regularizer": null, "gamma_regularizer": null, "beta_constraint": null, "gamma_constraint": null}, "inbound_nodes": [[["conv2d_588", 0, 0, {}]]]}, {"name": "activation_585", "class_name": "Activation", "config": {"name": "activation_585", "trainable": true, "activation": "relu"}, "inbound_nodes": [[["batch_normalization_585", 0, 0, {}]]]}, {"name": "activation_588", "class_name": "Activation", "config": {"name": "activation_588", "trainable": true, "activation": "relu"}, "inbound_nodes": [[["batch_normalization_588", 0, 0, {}]]]}, {"name": "average_pooling2d_57", "class_name": "AveragePooling2D", "config": {"name": "average_pooling2d_57", "trainable": true, "pool_size": [3, 3], "padding": "same", "strides": [1, 1], "data_format": "channels_last"}, "inbound_nodes": [[["mixed1", 0, 0, {}]]]}, {"name": "conv2d_584", "class_name": "Conv2D", "config": {"name": "conv2d_584", "trainable": true, "filters": 64, "kernel_size": [1, 1], "strides": [1, 1], "padding": "same", "data_format": "channels_last", "dilation_rate": [1, 1], "activation": "linear", "use_bias": false, "kernel_initializer": {"class_name": "VarianceScaling", "config": {"scale": 1.0, "mode": "fan_avg", "distribution": "uniform", "seed": null}}, "bias_initializer": {"class_name": "Zeros", "config": {}}, "kernel_regularizer": null, "bias_regularizer": null, "activity_regularizer": null, "kernel_constraint": null, "bias_constraint": null}, "inbound_nodes": [[["mixed1", 0, 0, {}]]]}, {"name": "conv2d_586", "class_name": "Conv2D", "config": {"name": "conv2d_586", "trainable": true, "filters": 64, "kernel_size": [5, 5], "strides": [1, 1], "padding": "same", "data_format": "channels_last", "dilation_rate": [1, 1], "activation": "linear", "use_bias": false, "kernel_initializer": {"class_name": "VarianceScaling", "config": {"scale": 1.0, "mode": "fan_avg", "distribution": "uniform", "seed": null}}, "bias_initializer": {"class_name": "Zeros", "config": {}}, "kernel_regularizer": null, "bias_regularizer": null, "activity_regularizer": null, "kernel_constraint": null, "bias_constraint": null}, "inbound_nodes": [[["activation_585", 0, 0, {}]]]}, {"name": "conv2d_589", "class_name": "Conv2D", "config": {"name": "conv2d_589", "trainable": true, "filters": 96, "kernel_size": [3, 3], "strides": [1, 1], "padding": "same", "data_format": "channels_last", "dilation_rate": [1, 1], "activation": "linear", "use_bias": false, "kernel_initializer": {"class_name": "VarianceScaling", "config": {"scale": 1.0, "mode": "fan_avg", "distribution": "uniform", "seed": null}}, "bias_initializer": {"class_name": "Zeros", "config": {}}, "kernel_regularizer": null, "bias_regularizer": null, "activity_regularizer": null, "kernel_constraint": null, "bias_constraint": null}, "inbound_nodes": [[["activation_588", 0, 0, {}]]]}, {"name": "conv2d_590", "class_name": "Conv2D", "config": {"name": "conv2d_590", "trainable": true, "filters": 64, "kernel_size": [1, 1], "strides": [1, 1], "padding": "same", "data_format": "channels_last", "dilation_rate": [1, 1], "activation": "linear", "use_bias": false, "kernel_initializer": {"class_name": "VarianceScaling", "config": {"scale": 1.0, "mode": "fan_avg", "distribution": "uniform", "seed": null}}, "bias_initializer": {"class_name": "Zeros", "config": {}}, "kernel_regularizer": null, "bias_regularizer": null, "activity_regularizer": null, "kernel_constraint": null, "bias_constraint": null}, "inbound_nodes": [[["average_pooling2d_57", 0, 0, {}]]]}, {"name": "batch_normalization_584", "class_name": "BatchNormalization", "config": {"name": "batch_normalization_584", "trainable": true, "axis": 3, "momentum": 0.99, "epsilon": 0.001, "center": true, "scale": false, "beta_initializer": {"class_name": "Zeros", "config": {}}, "gamma_initializer": {"class_name": "Ones", "config": {}}, "moving_mean_initializer": {"class_name": "Zeros", "config": {}}, "moving_variance_initializer": {"class_name": "Ones", "config": {}}, "beta_regularizer": null, "gamma_regularizer": null, "beta_constraint": null, "gamma_constraint": null}, "inbound_nodes": [[["conv2d_584", 0, 0, {}]]]}, {"name": "batch_normalization_586", "class_name": "BatchNormalization", "config": {"name": "batch_normalization_586", "trainable": true, "axis": 3, "momentum": 0.99, "epsilon": 0.001, "center": true, "scale": false, "beta_initializer": {"class_name": "Zeros", "config": {}}, "gamma_initializer": {"class_name": "Ones", "config": {}}, "moving_mean_initializer": {"class_name": "Zeros", "config": {}}, "moving_variance_initializer": {"class_name": "Ones", "config": {}}, "beta_regularizer": null, "gamma_regularizer": null, "beta_constraint": null, "gamma_constraint": null}, "inbound_nodes": [[["conv2d_586", 0, 0, {}]]]}, {"name": "batch_normalization_589", "class_name": "BatchNormalization", "config": {"name": "batch_normalization_589", "trainable": true, "axis": 3, "momentum": 0.99, "epsilon": 0.001, "center": true, "scale": false, "beta_initializer": {"class_name": "Zeros", "config": {}}, "gamma_initializer": {"class_name": "Ones", "config": {}}, "moving_mean_initializer": {"class_name": "Zeros", "config": {}}, "moving_variance_initializer": {"class_name": "Ones", "config": {}}, "beta_regularizer": null, "gamma_regularizer": null, "beta_constraint": null, "gamma_constraint": null}, "inbound_nodes": [[["conv2d_589", 0, 0, {}]]]}, {"name": "batch_normalization_590", "class_name": "BatchNormalization", "config": {"name": "batch_normalization_590", "trainable": true, "axis": 3, "momentum": 0.99, "epsilon": 0.001, "center": true, "scale": false, "beta_initializer": {"class_name": "Zeros", "config": {}}, "gamma_initializer": {"class_name": "Ones", "config": {}}, "moving_mean_initializer": {"class_name": "Zeros", "config": {}}, "moving_variance_initializer": {"class_name": "Ones", "config": {}}, "beta_regularizer": null, "gamma_regularizer": null, "beta_constraint": null, "gamma_constraint": null}, "inbound_nodes": [[["conv2d_590", 0, 0, {}]]]}, {"name": "activation_584", "class_name": "Activation", "config": {"name": "activation_584", "trainable": true, "activation": "relu"}, "inbound_nodes": [[["batch_normalization_584", 0, 0, {}]]]}, {"name": "activation_586", "class_name": "Activation", "config": {"name": "activation_586", "trainable": true, "activation": "relu"}, "inbound_nodes": [[["batch_normalization_586", 0, 0, {}]]]}, {"name": "activation_589", "class_name": "Activation", "config": {"name": "activation_589", "trainable": true, "activation": "relu"}, "inbound_nodes": [[["batch_normalization_589", 0, 0, {}]]]}, {"name": "activation_590", "class_name": "Activation", "config": {"name": "activation_590", "trainable": true, "activation": "relu"}, "inbound_nodes": [[["batch_normalization_590", 0, 0, {}]]]}, {"name": "mixed2", "class_name": "Concatenate", "config": {"name": "mixed2", "trainable": true, "axis": 3}, "inbound_nodes": [[["activation_584", 0, 0, {}], ["activation_586", 0, 0, {}], ["activation_589", 0, 0, {}], ["activation_590", 0, 0, {}]]]}, {"name": "conv2d_592", "class_name": "Conv2D", "config": {"name": "conv2d_592", "trainable": true, "filters": 64, "kernel_size": [1, 1], "strides": [1, 1], "padding": "same", "data_format": "channels_last", "dilation_rate": [1, 1], "activation": "linear", "use_bias": false, "kernel_initializer": {"class_name": "VarianceScaling", "config": {"scale": 1.0, "mode": "fan_avg", "distribution": "uniform", "seed": null}}, "bias_initializer": {"class_name": "Zeros", "config": {}}, "kernel_regularizer": null, "bias_regularizer": null, "activity_regularizer": null, "kernel_constraint": null, "bias_constraint": null}, "inbound_nodes": [[["mixed2", 0, 0, {}]]]}, {"name": "batch_normalization_592", "class_name": "BatchNormalization", "config": {"name": "batch_normalization_592", "trainable": true, "axis": 3, "momentum": 0.99, "epsilon": 0.001, "center": true, "scale": false, "beta_initializer": {"class_name": "Zeros", "config": {}}, "gamma_initializer": {"class_name": "Ones", "config": {}}, "moving_mean_initializer": {"class_name": "Zeros", "config": {}}, "moving_variance_initializer": {"class_name": "Ones", "config": {}}, "beta_regularizer": null, "gamma_regularizer": null, "beta_constraint": null, "gamma_constraint": null}, "inbound_nodes": [[["conv2d_592", 0, 0, {}]]]}, {"name": "activation_592", "class_name": "Activation", "config": {"name": "activation_592", "trainable": true, "activation": "relu"}, "inbound_nodes": [[["batch_normalization_592", 0, 0, {}]]]}, {"name": "conv2d_593", "class_name": "Conv2D", "config": {"name": "conv2d_593", "trainable": true, "filters": 96, "kernel_size": [3, 3], "strides": [1, 1], "padding": "same", "data_format": "channels_last", "dilation_rate": [1, 1], "activation": "linear", "use_bias": false, "kernel_initializer": {"class_name": "VarianceScaling", "config": {"scale": 1.0, "mode": "fan_avg", "distribution": "uniform", "seed": null}}, "bias_initializer": {"class_name": "Zeros", "config": {}}, "kernel_regularizer": null, "bias_regularizer": null, "activity_regularizer": null, "kernel_constraint": null, "bias_constraint": null}, "inbound_nodes": [[["activation_592", 0, 0, {}]]]}, {"name": "batch_normalization_593", "class_name": "BatchNormalization", "config": {"name": "batch_normalization_593", "trainable": true, "axis": 3, "momentum": 0.99, "epsilon": 0.001, "center": true, "scale": false, "beta_initializer": {"class_name": "Zeros", "config": {}}, "gamma_initializer": {"class_name": "Ones", "config": {}}, "moving_mean_initializer": {"class_name": "Zeros", "config": {}}, "moving_variance_initializer": {"class_name": "Ones", "config": {}}, "beta_regularizer": null, "gamma_regularizer": null, "beta_constraint": null, "gamma_constraint": null}, "inbound_nodes": [[["conv2d_593", 0, 0, {}]]]}, {"name": "activation_593", "class_name": "Activation", "config": {"name": "activation_593", "trainable": true, "activation": "relu"}, "inbound_nodes": [[["batch_normalization_593", 0, 0, {}]]]}, {"name": "conv2d_591", "class_name": "Conv2D", "config": {"name": "conv2d_591", "trainable": true, "filters": 384, "kernel_size": [3, 3], "strides": [2, 2], "padding": "valid", "data_format": "channels_last", "dilation_rate": [1, 1], "activation": "linear", "use_bias": false, "kernel_initializer": {"class_name": "VarianceScaling", "config": {"scale": 1.0, "mode": "fan_avg", "distribution": "uniform", "seed": null}}, "bias_initializer": {"class_name": "Zeros", "config": {}}, "kernel_regularizer": null, "bias_regularizer": null, "activity_regularizer": null, "kernel_constraint": null, "bias_constraint": null}, "inbound_nodes": [[["mixed2", 0, 0, {}]]]}, {"name": "conv2d_594", "class_name": "Conv2D", "config": {"name": "conv2d_594", "trainable": true, "filters": 96, "kernel_size": [3, 3], "strides": [2, 2], "padding": "valid", "data_format": "channels_last", "dilation_rate": [1, 1], "activation": "linear", "use_bias": false, "kernel_initializer": {"class_name": "VarianceScaling", "config": {"scale": 1.0, "mode": "fan_avg", "distribution": "uniform", "seed": null}}, "bias_initializer": {"class_name": "Zeros", "config": {}}, "kernel_regularizer": null, "bias_regularizer": null, "activity_regularizer": null, "kernel_constraint": null, "bias_constraint": null}, "inbound_nodes": [[["activation_593", 0, 0, {}]]]}, {"name": "batch_normalization_591", "class_name": "BatchNormalization", "config": {"name": "batch_normalization_591", "trainable": true, "axis": 3, "momentum": 0.99, "epsilon": 0.001, "center": true, "scale": false, "beta_initializer": {"class_name": "Zeros", "config": {}}, "gamma_initializer": {"class_name": "Ones", "config": {}}, "moving_mean_initializer": {"class_name": "Zeros", "config": {}}, "moving_variance_initializer": {"class_name": "Ones", "config": {}}, "beta_regularizer": null, "gamma_regularizer": null, "beta_constraint": null, "gamma_constraint": null}, "inbound_nodes": [[["conv2d_591", 0, 0, {}]]]}, {"name": "batch_normalization_594", "class_name": "BatchNormalization", "config": {"name": "batch_normalization_594", "trainable": true, "axis": 3, "momentum": 0.99, "epsilon": 0.001, "center": true, "scale": false, "beta_initializer": {"class_name": "Zeros", "config": {}}, "gamma_initializer": {"class_name": "Ones", "config": {}}, "moving_mean_initializer": {"class_name": "Zeros", "config": {}}, "moving_variance_initializer": {"class_name": "Ones", "config": {}}, "beta_regularizer": null, "gamma_regularizer": null, "beta_constraint": null, "gamma_constraint": null}, "inbound_nodes": [[["conv2d_594", 0, 0, {}]]]}, {"name": "activation_591", "class_name": "Activation", "config": {"name": "activation_591", "trainable": true, "activation": "relu"}, "inbound_nodes": [[["batch_normalization_591", 0, 0, {}]]]}, {"name": "activation_594", "class_name": "Activation", "config": {"name": "activation_594", "trainable": true, "activation": "relu"}, "inbound_nodes": [[["batch_normalization_594", 0, 0, {}]]]}, {"name": "max_pooling2d_27", "class_name": "MaxPooling2D", "config": {"name": "max_pooling2d_27", "trainable": true, "pool_size": [3, 3], "padding": "valid", "strides": [2, 2], "data_format": "channels_last"}, "inbound_nodes": [[["mixed2", 0, 0, {}]]]}, {"name": "mixed3", "class_name": "Concatenate", "config": {"name": "mixed3", "trainable": true, "axis": 3}, "inbound_nodes": [[["activation_591", 0, 0, {}], ["activation_594", 0, 0, {}], ["max_pooling2d_27", 0, 0, {}]]]}, {"name": "conv2d_599", "class_name": "Conv2D", "config": {"name": "conv2d_599", "trainable": true, "filters": 128, "kernel_size": [1, 1], "strides": [1, 1], "padding": "same", "data_format": "channels_last", "dilation_rate": [1, 1], "activation": "linear", "use_bias": false, "kernel_initializer": {"class_name": "VarianceScaling", "config": {"scale": 1.0, "mode": "fan_avg", "distribution": "uniform", "seed": null}}, "bias_initializer": {"class_name": "Zeros", "config": {}}, "kernel_regularizer": null, "bias_regularizer": null, "activity_regularizer": null, "kernel_constraint": null, "bias_constraint": null}, "inbound_nodes": [[["mixed3", 0, 0, {}]]]}, {"name": "batch_normalization_599", "class_name": "BatchNormalization", "config": {"name": "batch_normalization_599", "trainable": true, "axis": 3, "momentum": 0.99, "epsilon": 0.001, "center": true, "scale": false, "beta_initializer": {"class_name": "Zeros", "config": {}}, "gamma_initializer": {"class_name": "Ones", "config": {}}, "moving_mean_initializer": {"class_name": "Zeros", "config": {}}, "moving_variance_initializer": {"class_name": "Ones", "config": {}}, "beta_regularizer": null, "gamma_regularizer": null, "beta_constraint": null, "gamma_constraint": null}, "inbound_nodes": [[["conv2d_599", 0, 0, {}]]]}, {"name": "activation_599", "class_name": "Activation", "config": {"name": "activation_599", "trainable": true, "activation": "relu"}, "inbound_nodes": [[["batch_normalization_599", 0, 0, {}]]]}, {"name": "conv2d_600", "class_name": "Conv2D", "config": {"name": "conv2d_600", "trainable": true, "filters": 128, "kernel_size": [7, 1], "strides": [1, 1], "padding": "same", "data_format": "channels_last", "dilation_rate": [1, 1], "activation": "linear", "use_bias": false, "kernel_initializer": {"class_name": "VarianceScaling", "config": {"scale": 1.0, "mode": "fan_avg", "distribution": "uniform", "seed": null}}, "bias_initializer": {"class_name": "Zeros", "config": {}}, "kernel_regularizer": null, "bias_regularizer": null, "activity_regularizer": null, "kernel_constraint": null, "bias_constraint": null}, "inbound_nodes": [[["activation_599", 0, 0, {}]]]}, {"name": "batch_normalization_600", "class_name": "BatchNormalization", "config": {"name": "batch_normalization_600", "trainable": true, "axis": 3, "momentum": 0.99, "epsilon": 0.001, "center": true, "scale": false, "beta_initializer": {"class_name": "Zeros", "config": {}}, "gamma_initializer": {"class_name": "Ones", "config": {}}, "moving_mean_initializer": {"class_name": "Zeros", "config": {}}, "moving_variance_initializer": {"class_name": "Ones", "config": {}}, "beta_regularizer": null, "gamma_regularizer": null, "beta_constraint": null, "gamma_constraint": null}, "inbound_nodes": [[["conv2d_600", 0, 0, {}]]]}, {"name": "activation_600", "class_name": "Activation", "config": {"name": "activation_600", "trainable": true, "activation": "relu"}, "inbound_nodes": [[["batch_normalization_600", 0, 0, {}]]]}, {"name": "conv2d_596", "class_name": "Conv2D", "config": {"name": "conv2d_596", "trainable": true, "filters": 128, "kernel_size": [1, 1], "strides": [1, 1], "padding": "same", "data_format": "channels_last", "dilation_rate": [1, 1], "activation": "linear", "use_bias": false, "kernel_initializer": {"class_name": "VarianceScaling", "config": {"scale": 1.0, "mode": "fan_avg", "distribution": "uniform", "seed": null}}, "bias_initializer": {"class_name": "Zeros", "config": {}}, "kernel_regularizer": null, "bias_regularizer": null, "activity_regularizer": null, "kernel_constraint": null, "bias_constraint": null}, "inbound_nodes": [[["mixed3", 0, 0, {}]]]}, {"name": "conv2d_601", "class_name": "Conv2D", "config": {"name": "conv2d_601", "trainable": true, "filters": 128, "kernel_size": [1, 7], "strides": [1, 1], "padding": "same", "data_format": "channels_last", "dilation_rate": [1, 1], "activation": "linear", "use_bias": false, "kernel_initializer": {"class_name": "VarianceScaling", "config": {"scale": 1.0, "mode": "fan_avg", "distribution": "uniform", "seed": null}}, "bias_initializer": {"class_name": "Zeros", "config": {}}, "kernel_regularizer": null, "bias_regularizer": null, "activity_regularizer": null, "kernel_constraint": null, "bias_constraint": null}, "inbound_nodes": [[["activation_600", 0, 0, {}]]]}, {"name": "batch_normalization_596", "class_name": "BatchNormalization", "config": {"name": "batch_normalization_596", "trainable": true, "axis": 3, "momentum": 0.99, "epsilon": 0.001, "center": true, "scale": false, "beta_initializer": {"class_name": "Zeros", "config": {}}, "gamma_initializer": {"class_name": "Ones", "config": {}}, "moving_mean_initializer": {"class_name": "Zeros", "config": {}}, "moving_variance_initializer": {"class_name": "Ones", "config": {}}, "beta_regularizer": null, "gamma_regularizer": null, "beta_constraint": null, "gamma_constraint": null}, "inbound_nodes": [[["conv2d_596", 0, 0, {}]]]}, {"name": "batch_normalization_601", "class_name": "BatchNormalization", "config": {"name": "batch_normalization_601", "trainable": true, "axis": 3, "momentum": 0.99, "epsilon": 0.001, "center": true, "scale": false, "beta_initializer": {"class_name": "Zeros", "config": {}}, "gamma_initializer": {"class_name": "Ones", "config": {}}, "moving_mean_initializer": {"class_name": "Zeros", "config": {}}, "moving_variance_initializer": {"class_name": "Ones", "config": {}}, "beta_regularizer": null, "gamma_regularizer": null, "beta_constraint": null, "gamma_constraint": null}, "inbound_nodes": [[["conv2d_601", 0, 0, {}]]]}, {"name": "activation_596", "class_name": "Activation", "config": {"name": "activation_596", "trainable": true, "activation": "relu"}, "inbound_nodes": [[["batch_normalization_596", 0, 0, {}]]]}, {"name": "activation_601", "class_name": "Activation", "config": {"name": "activation_601", "trainable": true, "activation": "relu"}, "inbound_nodes": [[["batch_normalization_601", 0, 0, {}]]]}, {"name": "conv2d_597", "class_name": "Conv2D", "config": {"name": "conv2d_597", "trainable": true, "filters": 128, "kernel_size": [1, 7], "strides": [1, 1], "padding": "same", "data_format": "channels_last", "dilation_rate": [1, 1], "activation": "linear", "use_bias": false, "kernel_initializer": {"class_name": "VarianceScaling", "config": {"scale": 1.0, "mode": "fan_avg", "distribution": "uniform", "seed": null}}, "bias_initializer": {"class_name": "Zeros", "config": {}}, "kernel_regularizer": null, "bias_regularizer": null, "activity_regularizer": null, "kernel_constraint": null, "bias_constraint": null}, "inbound_nodes": [[["activation_596", 0, 0, {}]]]}, {"name": "conv2d_602", "class_name": "Conv2D", "config": {"name": "conv2d_602", "trainable": true, "filters": 128, "kernel_size": [7, 1], "strides": [1, 1], "padding": "same", "data_format": "channels_last", "dilation_rate": [1, 1], "activation": "linear", "use_bias": false, "kernel_initializer": {"class_name": "VarianceScaling", "config": {"scale": 1.0, "mode": "fan_avg", "distribution": "uniform", "seed": null}}, "bias_initializer": {"class_name": "Zeros", "config": {}}, "kernel_regularizer": null, "bias_regularizer": null, "activity_regularizer": null, "kernel_constraint": null, "bias_constraint": null}, "inbound_nodes": [[["activation_601", 0, 0, {}]]]}, {"name": "batch_normalization_597", "class_name": "BatchNormalization", "config": {"name": "batch_normalization_597", "trainable": true, "axis": 3, "momentum": 0.99, "epsilon": 0.001, "center": true, "scale": false, "beta_initializer": {"class_name": "Zeros", "config": {}}, "gamma_initializer": {"class_name": "Ones", "config": {}}, "moving_mean_initializer": {"class_name": "Zeros", "config": {}}, "moving_variance_initializer": {"class_name": "Ones", "config": {}}, "beta_regularizer": null, "gamma_regularizer": null, "beta_constraint": null, "gamma_constraint": null}, "inbound_nodes": [[["conv2d_597", 0, 0, {}]]]}, {"name": "batch_normalization_602", "class_name": "BatchNormalization", "config": {"name": "batch_normalization_602", "trainable": true, "axis": 3, "momentum": 0.99, "epsilon": 0.001, "center": true, "scale": false, "beta_initializer": {"class_name": "Zeros", "config": {}}, "gamma_initializer": {"class_name": "Ones", "config": {}}, "moving_mean_initializer": {"class_name": "Zeros", "config": {}}, "moving_variance_initializer": {"class_name": "Ones", "config": {}}, "beta_regularizer": null, "gamma_regularizer": null, "beta_constraint": null, "gamma_constraint": null}, "inbound_nodes": [[["conv2d_602", 0, 0, {}]]]}, {"name": "activation_597", "class_name": "Activation", "config": {"name": "activation_597", "trainable": true, "activation": "relu"}, "inbound_nodes": [[["batch_normalization_597", 0, 0, {}]]]}, {"name": "activation_602", "class_name": "Activation", "config": {"name": "activation_602", "trainable": true, "activation": "relu"}, "inbound_nodes": [[["batch_normalization_602", 0, 0, {}]]]}, {"name": "average_pooling2d_58", "class_name": "AveragePooling2D", "config": {"name": "average_pooling2d_58", "trainable": true, "pool_size": [3, 3], "padding": "same", "strides": [1, 1], "data_format": "channels_last"}, "inbound_nodes": [[["mixed3", 0, 0, {}]]]}, {"name": "conv2d_595", "class_name": "Conv2D", "config": {"name": "conv2d_595", "trainable": true, "filters": 192, "kernel_size": [1, 1], "strides": [1, 1], "padding": "same", "data_format": "channels_last", "dilation_rate": [1, 1], "activation": "linear", "use_bias": false, "kernel_initializer": {"class_name": "VarianceScaling", "config": {"scale": 1.0, "mode": "fan_avg", "distribution": "uniform", "seed": null}}, "bias_initializer": {"class_name": "Zeros", "config": {}}, "kernel_regularizer": null, "bias_regularizer": null, "activity_regularizer": null, "kernel_constraint": null, "bias_constraint": null}, "inbound_nodes": [[["mixed3", 0, 0, {}]]]}, {"name": "conv2d_598", "class_name": "Conv2D", "config": {"name": "conv2d_598", "trainable": true, "filters": 192, "kernel_size": [7, 1], "strides": [1, 1], "padding": "same", "data_format": "channels_last", "dilation_rate": [1, 1], "activation": "linear", "use_bias": false, "kernel_initializer": {"class_name": "VarianceScaling", "config": {"scale": 1.0, "mode": "fan_avg", "distribution": "uniform", "seed": null}}, "bias_initializer": {"class_name": "Zeros", "config": {}}, "kernel_regularizer": null, "bias_regularizer": null, "activity_regularizer": null, "kernel_constraint": null, "bias_constraint": null}, "inbound_nodes": [[["activation_597", 0, 0, {}]]]}, {"name": "conv2d_603", "class_name": "Conv2D", "config": {"name": "conv2d_603", "trainable": true, "filters": 192, "kernel_size": [1, 7], "strides": [1, 1], "padding": "same", "data_format": "channels_last", "dilation_rate": [1, 1], "activation": "linear", "use_bias": false, "kernel_initializer": {"class_name": "VarianceScaling", "config": {"scale": 1.0, "mode": "fan_avg", "distribution": "uniform", "seed": null}}, "bias_initializer": {"class_name": "Zeros", "config": {}}, "kernel_regularizer": null, "bias_regularizer": null, "activity_regularizer": null, "kernel_constraint": null, "bias_constraint": null}, "inbound_nodes": [[["activation_602", 0, 0, {}]]]}, {"name": "conv2d_604", "class_name": "Conv2D", "config": {"name": "conv2d_604", "trainable": true, "filters": 192, "kernel_size": [1, 1], "strides": [1, 1], "padding": "same", "data_format": "channels_last", "dilation_rate": [1, 1], "activation": "linear", "use_bias": false, "kernel_initializer": {"class_name": "VarianceScaling", "config": {"scale": 1.0, "mode": "fan_avg", "distribution": "uniform", "seed": null}}, "bias_initializer": {"class_name": "Zeros", "config": {}}, "kernel_regularizer": null, "bias_regularizer": null, "activity_regularizer": null, "kernel_constraint": null, "bias_constraint": null}, "inbound_nodes": [[["average_pooling2d_58", 0, 0, {}]]]}, {"name": "batch_normalization_595", "class_name": "BatchNormalization", "config": {"name": "batch_normalization_595", "trainable": true, "axis": 3, "momentum": 0.99, "epsilon": 0.001, "center": true, "scale": false, "beta_initializer": {"class_name": "Zeros", "config": {}}, "gamma_initializer": {"class_name": "Ones", "config": {}}, "moving_mean_initializer": {"class_name": "Zeros", "config": {}}, "moving_variance_initializer": {"class_name": "Ones", "config": {}}, "beta_regularizer": null, "gamma_regularizer": null, "beta_constraint": null, "gamma_constraint": null}, "inbound_nodes": [[["conv2d_595", 0, 0, {}]]]}, {"name": "batch_normalization_598", "class_name": "BatchNormalization", "config": {"name": "batch_normalization_598", "trainable": true, "axis": 3, "momentum": 0.99, "epsilon": 0.001, "center": true, "scale": false, "beta_initializer": {"class_name": "Zeros", "config": {}}, "gamma_initializer": {"class_name": "Ones", "config": {}}, "moving_mean_initializer": {"class_name": "Zeros", "config": {}}, "moving_variance_initializer": {"class_name": "Ones", "config": {}}, "beta_regularizer": null, "gamma_regularizer": null, "beta_constraint": null, "gamma_constraint": null}, "inbound_nodes": [[["conv2d_598", 0, 0, {}]]]}, {"name": "batch_normalization_603", "class_name": "BatchNormalization", "config": {"name": "batch_normalization_603", "trainable": true, "axis": 3, "momentum": 0.99, "epsilon": 0.001, "center": true, "scale": false, "beta_initializer": {"class_name": "Zeros", "config": {}}, "gamma_initializer": {"class_name": "Ones", "config": {}}, "moving_mean_initializer": {"class_name": "Zeros", "config": {}}, "moving_variance_initializer": {"class_name": "Ones", "config": {}}, "beta_regularizer": null, "gamma_regularizer": null, "beta_constraint": null, "gamma_constraint": null}, "inbound_nodes": [[["conv2d_603", 0, 0, {}]]]}, {"name": "batch_normalization_604", "class_name": "BatchNormalization", "config": {"name": "batch_normalization_604", "trainable": true, "axis": 3, "momentum": 0.99, "epsilon": 0.001, "center": true, "scale": false, "beta_initializer": {"class_name": "Zeros", "config": {}}, "gamma_initializer": {"class_name": "Ones", "config": {}}, "moving_mean_initializer": {"class_name": "Zeros", "config": {}}, "moving_variance_initializer": {"class_name": "Ones", "config": {}}, "beta_regularizer": null, "gamma_regularizer": null, "beta_constraint": null, "gamma_constraint": null}, "inbound_nodes": [[["conv2d_604", 0, 0, {}]]]}, {"name": "activation_595", "class_name": "Activation", "config": {"name": "activation_595", "trainable": true, "activation": "relu"}, "inbound_nodes": [[["batch_normalization_595", 0, 0, {}]]]}, {"name": "activation_598", "class_name": "Activation", "config": {"name": "activation_598", "trainable": true, "activation": "relu"}, "inbound_nodes": [[["batch_normalization_598", 0, 0, {}]]]}, {"name": "activation_603", "class_name": "Activation", "config": {"name": "activation_603", "trainable": true, "activation": "relu"}, "inbound_nodes": [[["batch_normalization_603", 0, 0, {}]]]}, {"name": "activation_604", "class_name": "Activation", "config": {"name": "activation_604", "trainable": true, "activation": "relu"}, "inbound_nodes": [[["batch_normalization_604", 0, 0, {}]]]}, {"name": "mixed4", "class_name": "Concatenate", "config": {"name": "mixed4", "trainable": true, "axis": 3}, "inbound_nodes": [[["activation_595", 0, 0, {}], ["activation_598", 0, 0, {}], ["activation_603", 0, 0, {}], ["activation_604", 0, 0, {}]]]}, {"name": "conv2d_609", "class_name": "Conv2D", "config": {"name": "conv2d_609", "trainable": true, "filters": 160, "kernel_size": [1, 1], "strides": [1, 1], "padding": "same", "data_format": "channels_last", "dilation_rate": [1, 1], "activation": "linear", "use_bias": false, "kernel_initializer": {"class_name": "VarianceScaling", "config": {"scale": 1.0, "mode": "fan_avg", "distribution": "uniform", "seed": null}}, "bias_initializer": {"class_name": "Zeros", "config": {}}, "kernel_regularizer": null, "bias_regularizer": null, "activity_regularizer": null, "kernel_constraint": null, "bias_constraint": null}, "inbound_nodes": [[["mixed4", 0, 0, {}]]]}, {"name": "batch_normalization_609", "class_name": "BatchNormalization", "config": {"name": "batch_normalization_609", "trainable": true, "axis": 3, "momentum": 0.99, "epsilon": 0.001, "center": true, "scale": false, "beta_initializer": {"class_name": "Zeros", "config": {}}, "gamma_initializer": {"class_name": "Ones", "config": {}}, "moving_mean_initializer": {"class_name": "Zeros", "config": {}}, "moving_variance_initializer": {"class_name": "Ones", "config": {}}, "beta_regularizer": null, "gamma_regularizer": null, "beta_constraint": null, "gamma_constraint": null}, "inbound_nodes": [[["conv2d_609", 0, 0, {}]]]}, {"name": "activation_609", "class_name": "Activation", "config": {"name": "activation_609", "trainable": true, "activation": "relu"}, "inbound_nodes": [[["batch_normalization_609", 0, 0, {}]]]}, {"name": "conv2d_610", "class_name": "Conv2D", "config": {"name": "conv2d_610", "trainable": true, "filters": 160, "kernel_size": [7, 1], "strides": [1, 1], "padding": "same", "data_format": "channels_last", "dilation_rate": [1, 1], "activation": "linear", "use_bias": false, "kernel_initializer": {"class_name": "VarianceScaling", "config": {"scale": 1.0, "mode": "fan_avg", "distribution": "uniform", "seed": null}}, "bias_initializer": {"class_name": "Zeros", "config": {}}, "kernel_regularizer": null, "bias_regularizer": null, "activity_regularizer": null, "kernel_constraint": null, "bias_constraint": null}, "inbound_nodes": [[["activation_609", 0, 0, {}]]]}, {"name": "batch_normalization_610", "class_name": "BatchNormalization", "config": {"name": "batch_normalization_610", "trainable": true, "axis": 3, "momentum": 0.99, "epsilon": 0.001, "center": true, "scale": false, "beta_initializer": {"class_name": "Zeros", "config": {}}, "gamma_initializer": {"class_name": "Ones", "config": {}}, "moving_mean_initializer": {"class_name": "Zeros", "config": {}}, "moving_variance_initializer": {"class_name": "Ones", "config": {}}, "beta_regularizer": null, "gamma_regularizer": null, "beta_constraint": null, "gamma_constraint": null}, "inbound_nodes": [[["conv2d_610", 0, 0, {}]]]}, {"name": "activation_610", "class_name": "Activation", "config": {"name": "activation_610", "trainable": true, "activation": "relu"}, "inbound_nodes": [[["batch_normalization_610", 0, 0, {}]]]}, {"name": "conv2d_606", "class_name": "Conv2D", "config": {"name": "conv2d_606", "trainable": true, "filters": 160, "kernel_size": [1, 1], "strides": [1, 1], "padding": "same", "data_format": "channels_last", "dilation_rate": [1, 1], "activation": "linear", "use_bias": false, "kernel_initializer": {"class_name": "VarianceScaling", "config": {"scale": 1.0, "mode": "fan_avg", "distribution": "uniform", "seed": null}}, "bias_initializer": {"class_name": "Zeros", "config": {}}, "kernel_regularizer": null, "bias_regularizer": null, "activity_regularizer": null, "kernel_constraint": null, "bias_constraint": null}, "inbound_nodes": [[["mixed4", 0, 0, {}]]]}, {"name": "conv2d_611", "class_name": "Conv2D", "config": {"name": "conv2d_611", "trainable": true, "filters": 160, "kernel_size": [1, 7], "strides": [1, 1], "padding": "same", "data_format": "channels_last", "dilation_rate": [1, 1], "activation": "linear", "use_bias": false, "kernel_initializer": {"class_name": "VarianceScaling", "config": {"scale": 1.0, "mode": "fan_avg", "distribution": "uniform", "seed": null}}, "bias_initializer": {"class_name": "Zeros", "config": {}}, "kernel_regularizer": null, "bias_regularizer": null, "activity_regularizer": null, "kernel_constraint": null, "bias_constraint": null}, "inbound_nodes": [[["activation_610", 0, 0, {}]]]}, {"name": "batch_normalization_606", "class_name": "BatchNormalization", "config": {"name": "batch_normalization_606", "trainable": true, "axis": 3, "momentum": 0.99, "epsilon": 0.001, "center": true, "scale": false, "beta_initializer": {"class_name": "Zeros", "config": {}}, "gamma_initializer": {"class_name": "Ones", "config": {}}, "moving_mean_initializer": {"class_name": "Zeros", "config": {}}, "moving_variance_initializer": {"class_name": "Ones", "config": {}}, "beta_regularizer": null, "gamma_regularizer": null, "beta_constraint": null, "gamma_constraint": null}, "inbound_nodes": [[["conv2d_606", 0, 0, {}]]]}, {"name": "batch_normalization_611", "class_name": "BatchNormalization", "config": {"name": "batch_normalization_611", "trainable": true, "axis": 3, "momentum": 0.99, "epsilon": 0.001, "center": true, "scale": false, "beta_initializer": {"class_name": "Zeros", "config": {}}, "gamma_initializer": {"class_name": "Ones", "config": {}}, "moving_mean_initializer": {"class_name": "Zeros", "config": {}}, "moving_variance_initializer": {"class_name": "Ones", "config": {}}, "beta_regularizer": null, "gamma_regularizer": null, "beta_constraint": null, "gamma_constraint": null}, "inbound_nodes": [[["conv2d_611", 0, 0, {}]]]}, {"name": "activation_606", "class_name": "Activation", "config": {"name": "activation_606", "trainable": true, "activation": "relu"}, "inbound_nodes": [[["batch_normalization_606", 0, 0, {}]]]}, {"name": "activation_611", "class_name": "Activation", "config": {"name": "activation_611", "trainable": true, "activation": "relu"}, "inbound_nodes": [[["batch_normalization_611", 0, 0, {}]]]}, {"name": "conv2d_607", "class_name": "Conv2D", "config": {"name": "conv2d_607", "trainable": true, "filters": 160, "kernel_size": [1, 7], "strides": [1, 1], "padding": "same", "data_format": "channels_last", "dilation_rate": [1, 1], "activation": "linear", "use_bias": false, "kernel_initializer": {"class_name": "VarianceScaling", "config": {"scale": 1.0, "mode": "fan_avg", "distribution": "uniform", "seed": null}}, "bias_initializer": {"class_name": "Zeros", "config": {}}, "kernel_regularizer": null, "bias_regularizer": null, "activity_regularizer": null, "kernel_constraint": null, "bias_constraint": null}, "inbound_nodes": [[["activation_606", 0, 0, {}]]]}, {"name": "conv2d_612", "class_name": "Conv2D", "config": {"name": "conv2d_612", "trainable": true, "filters": 160, "kernel_size": [7, 1], "strides": [1, 1], "padding": "same", "data_format": "channels_last", "dilation_rate": [1, 1], "activation": "linear", "use_bias": false, "kernel_initializer": {"class_name": "VarianceScaling", "config": {"scale": 1.0, "mode": "fan_avg", "distribution": "uniform", "seed": null}}, "bias_initializer": {"class_name": "Zeros", "config": {}}, "kernel_regularizer": null, "bias_regularizer": null, "activity_regularizer": null, "kernel_constraint": null, "bias_constraint": null}, "inbound_nodes": [[["activation_611", 0, 0, {}]]]}, {"name": "batch_normalization_607", "class_name": "BatchNormalization", "config": {"name": "batch_normalization_607", "trainable": true, "axis": 3, "momentum": 0.99, "epsilon": 0.001, "center": true, "scale": false, "beta_initializer": {"class_name": "Zeros", "config": {}}, "gamma_initializer": {"class_name": "Ones", "config": {}}, "moving_mean_initializer": {"class_name": "Zeros", "config": {}}, "moving_variance_initializer": {"class_name": "Ones", "config": {}}, "beta_regularizer": null, "gamma_regularizer": null, "beta_constraint": null, "gamma_constraint": null}, "inbound_nodes": [[["conv2d_607", 0, 0, {}]]]}, {"name": "batch_normalization_612", "class_name": "BatchNormalization", "config": {"name": "batch_normalization_612", "trainable": true, "axis": 3, "momentum": 0.99, "epsilon": 0.001, "center": true, "scale": false, "beta_initializer": {"class_name": "Zeros", "config": {}}, "gamma_initializer": {"class_name": "Ones", "config": {}}, "moving_mean_initializer": {"class_name": "Zeros", "config": {}}, "moving_variance_initializer": {"class_name": "Ones", "config": {}}, "beta_regularizer": null, "gamma_regularizer": null, "beta_constraint": null, "gamma_constraint": null}, "inbound_nodes": [[["conv2d_612", 0, 0, {}]]]}, {"name": "activation_607", "class_name": "Activation", "config": {"name": "activation_607", "trainable": true, "activation": "relu"}, "inbound_nodes": [[["batch_normalization_607", 0, 0, {}]]]}, {"name": "activation_612", "class_name": "Activation", "config": {"name": "activation_612", "trainable": true, "activation": "relu"}, "inbound_nodes": [[["batch_normalization_612", 0, 0, {}]]]}, {"name": "average_pooling2d_59", "class_name": "AveragePooling2D", "config": {"name": "average_pooling2d_59", "trainable": true, "pool_size": [3, 3], "padding": "same", "strides": [1, 1], "data_format": "channels_last"}, "inbound_nodes": [[["mixed4", 0, 0, {}]]]}, {"name": "conv2d_605", "class_name": "Conv2D", "config": {"name": "conv2d_605", "trainable": true, "filters": 192, "kernel_size": [1, 1], "strides": [1, 1], "padding": "same", "data_format": "channels_last", "dilation_rate": [1, 1], "activation": "linear", "use_bias": false, "kernel_initializer": {"class_name": "VarianceScaling", "config": {"scale": 1.0, "mode": "fan_avg", "distribution": "uniform", "seed": null}}, "bias_initializer": {"class_name": "Zeros", "config": {}}, "kernel_regularizer": null, "bias_regularizer": null, "activity_regularizer": null, "kernel_constraint": null, "bias_constraint": null}, "inbound_nodes": [[["mixed4", 0, 0, {}]]]}, {"name": "conv2d_608", "class_name": "Conv2D", "config": {"name": "conv2d_608", "trainable": true, "filters": 192, "kernel_size": [7, 1], "strides": [1, 1], "padding": "same", "data_format": "channels_last", "dilation_rate": [1, 1], "activation": "linear", "use_bias": false, "kernel_initializer": {"class_name": "VarianceScaling", "config": {"scale": 1.0, "mode": "fan_avg", "distribution": "uniform", "seed": null}}, "bias_initializer": {"class_name": "Zeros", "config": {}}, "kernel_regularizer": null, "bias_regularizer": null, "activity_regularizer": null, "kernel_constraint": null, "bias_constraint": null}, "inbound_nodes": [[["activation_607", 0, 0, {}]]]}, {"name": "conv2d_613", "class_name": "Conv2D", "config": {"name": "conv2d_613", "trainable": true, "filters": 192, "kernel_size": [1, 7], "strides": [1, 1], "padding": "same", "data_format": "channels_last", "dilation_rate": [1, 1], "activation": "linear", "use_bias": false, "kernel_initializer": {"class_name": "VarianceScaling", "config": {"scale": 1.0, "mode": "fan_avg", "distribution": "uniform", "seed": null}}, "bias_initializer": {"class_name": "Zeros", "config": {}}, "kernel_regularizer": null, "bias_regularizer": null, "activity_regularizer": null, "kernel_constraint": null, "bias_constraint": null}, "inbound_nodes": [[["activation_612", 0, 0, {}]]]}, {"name": "conv2d_614", "class_name": "Conv2D", "config": {"name": "conv2d_614", "trainable": true, "filters": 192, "kernel_size": [1, 1], "strides": [1, 1], "padding": "same", "data_format": "channels_last", "dilation_rate": [1, 1], "activation": "linear", "use_bias": false, "kernel_initializer": {"class_name": "VarianceScaling", "config": {"scale": 1.0, "mode": "fan_avg", "distribution": "uniform", "seed": null}}, "bias_initializer": {"class_name": "Zeros", "config": {}}, "kernel_regularizer": null, "bias_regularizer": null, "activity_regularizer": null, "kernel_constraint": null, "bias_constraint": null}, "inbound_nodes": [[["average_pooling2d_59", 0, 0, {}]]]}, {"name": "batch_normalization_605", "class_name": "BatchNormalization", "config": {"name": "batch_normalization_605", "trainable": true, "axis": 3, "momentum": 0.99, "epsilon": 0.001, "center": true, "scale": false, "beta_initializer": {"class_name": "Zeros", "config": {}}, "gamma_initializer": {"class_name": "Ones", "config": {}}, "moving_mean_initializer": {"class_name": "Zeros", "config": {}}, "moving_variance_initializer": {"class_name": "Ones", "config": {}}, "beta_regularizer": null, "gamma_regularizer": null, "beta_constraint": null, "gamma_constraint": null}, "inbound_nodes": [[["conv2d_605", 0, 0, {}]]]}, {"name": "batch_normalization_608", "class_name": "BatchNormalization", "config": {"name": "batch_normalization_608", "trainable": true, "axis": 3, "momentum": 0.99, "epsilon": 0.001, "center": true, "scale": false, "beta_initializer": {"class_name": "Zeros", "config": {}}, "gamma_initializer": {"class_name": "Ones", "config": {}}, "moving_mean_initializer": {"class_name": "Zeros", "config": {}}, "moving_variance_initializer": {"class_name": "Ones", "config": {}}, "beta_regularizer": null, "gamma_regularizer": null, "beta_constraint": null, "gamma_constraint": null}, "inbound_nodes": [[["conv2d_608", 0, 0, {}]]]}, {"name": "batch_normalization_613", "class_name": "BatchNormalization", "config": {"name": "batch_normalization_613", "trainable": true, "axis": 3, "momentum": 0.99, "epsilon": 0.001, "center": true, "scale": false, "beta_initializer": {"class_name": "Zeros", "config": {}}, "gamma_initializer": {"class_name": "Ones", "config": {}}, "moving_mean_initializer": {"class_name": "Zeros", "config": {}}, "moving_variance_initializer": {"class_name": "Ones", "config": {}}, "beta_regularizer": null, "gamma_regularizer": null, "beta_constraint": null, "gamma_constraint": null}, "inbound_nodes": [[["conv2d_613", 0, 0, {}]]]}, {"name": "batch_normalization_614", "class_name": "BatchNormalization", "config": {"name": "batch_normalization_614", "trainable": true, "axis": 3, "momentum": 0.99, "epsilon": 0.001, "center": true, "scale": false, "beta_initializer": {"class_name": "Zeros", "config": {}}, "gamma_initializer": {"class_name": "Ones", "config": {}}, "moving_mean_initializer": {"class_name": "Zeros", "config": {}}, "moving_variance_initializer": {"class_name": "Ones", "config": {}}, "beta_regularizer": null, "gamma_regularizer": null, "beta_constraint": null, "gamma_constraint": null}, "inbound_nodes": [[["conv2d_614", 0, 0, {}]]]}, {"name": "activation_605", "class_name": "Activation", "config": {"name": "activation_605", "trainable": true, "activation": "relu"}, "inbound_nodes": [[["batch_normalization_605", 0, 0, {}]]]}, {"name": "activation_608", "class_name": "Activation", "config": {"name": "activation_608", "trainable": true, "activation": "relu"}, "inbound_nodes": [[["batch_normalization_608", 0, 0, {}]]]}, {"name": "activation_613", "class_name": "Activation", "config": {"name": "activation_613", "trainable": true, "activation": "relu"}, "inbound_nodes": [[["batch_normalization_613", 0, 0, {}]]]}, {"name": "activation_614", "class_name": "Activation", "config": {"name": "activation_614", "trainable": true, "activation": "relu"}, "inbound_nodes": [[["batch_normalization_614", 0, 0, {}]]]}, {"name": "mixed5", "class_name": "Concatenate", "config": {"name": "mixed5", "trainable": true, "axis": 3}, "inbound_nodes": [[["activation_605", 0, 0, {}], ["activation_608", 0, 0, {}], ["activation_613", 0, 0, {}], ["activation_614", 0, 0, {}]]]}, {"name": "conv2d_619", "class_name": "Conv2D", "config": {"name": "conv2d_619", "trainable": true, "filters": 160, "kernel_size": [1, 1], "strides": [1, 1], "padding": "same", "data_format": "channels_last", "dilation_rate": [1, 1], "activation": "linear", "use_bias": false, "kernel_initializer": {"class_name": "VarianceScaling", "config": {"scale": 1.0, "mode": "fan_avg", "distribution": "uniform", "seed": null}}, "bias_initializer": {"class_name": "Zeros", "config": {}}, "kernel_regularizer": null, "bias_regularizer": null, "activity_regularizer": null, "kernel_constraint": null, "bias_constraint": null}, "inbound_nodes": [[["mixed5", 0, 0, {}]]]}, {"name": "batch_normalization_619", "class_name": "BatchNormalization", "config": {"name": "batch_normalization_619", "trainable": true, "axis": 3, "momentum": 0.99, "epsilon": 0.001, "center": true, "scale": false, "beta_initializer": {"class_name": "Zeros", "config": {}}, "gamma_initializer": {"class_name": "Ones", "config": {}}, "moving_mean_initializer": {"class_name": "Zeros", "config": {}}, "moving_variance_initializer": {"class_name": "Ones", "config": {}}, "beta_regularizer": null, "gamma_regularizer": null, "beta_constraint": null, "gamma_constraint": null}, "inbound_nodes": [[["conv2d_619", 0, 0, {}]]]}, {"name": "activation_619", "class_name": "Activation", "config": {"name": "activation_619", "trainable": true, "activation": "relu"}, "inbound_nodes": [[["batch_normalization_619", 0, 0, {}]]]}, {"name": "conv2d_620", "class_name": "Conv2D", "config": {"name": "conv2d_620", "trainable": true, "filters": 160, "kernel_size": [7, 1], "strides": [1, 1], "padding": "same", "data_format": "channels_last", "dilation_rate": [1, 1], "activation": "linear", "use_bias": false, "kernel_initializer": {"class_name": "VarianceScaling", "config": {"scale": 1.0, "mode": "fan_avg", "distribution": "uniform", "seed": null}}, "bias_initializer": {"class_name": "Zeros", "config": {}}, "kernel_regularizer": null, "bias_regularizer": null, "activity_regularizer": null, "kernel_constraint": null, "bias_constraint": null}, "inbound_nodes": [[["activation_619", 0, 0, {}]]]}, {"name": "batch_normalization_620", "class_name": "BatchNormalization", "config": {"name": "batch_normalization_620", "trainable": true, "axis": 3, "momentum": 0.99, "epsilon": 0.001, "center": true, "scale": false, "beta_initializer": {"class_name": "Zeros", "config": {}}, "gamma_initializer": {"class_name": "Ones", "config": {}}, "moving_mean_initializer": {"class_name": "Zeros", "config": {}}, "moving_variance_initializer": {"class_name": "Ones", "config": {}}, "beta_regularizer": null, "gamma_regularizer": null, "beta_constraint": null, "gamma_constraint": null}, "inbound_nodes": [[["conv2d_620", 0, 0, {}]]]}, {"name": "activation_620", "class_name": "Activation", "config": {"name": "activation_620", "trainable": true, "activation": "relu"}, "inbound_nodes": [[["batch_normalization_620", 0, 0, {}]]]}, {"name": "conv2d_616", "class_name": "Conv2D", "config": {"name": "conv2d_616", "trainable": true, "filters": 160, "kernel_size": [1, 1], "strides": [1, 1], "padding": "same", "data_format": "channels_last", "dilation_rate": [1, 1], "activation": "linear", "use_bias": false, "kernel_initializer": {"class_name": "VarianceScaling", "config": {"scale": 1.0, "mode": "fan_avg", "distribution": "uniform", "seed": null}}, "bias_initializer": {"class_name": "Zeros", "config": {}}, "kernel_regularizer": null, "bias_regularizer": null, "activity_regularizer": null, "kernel_constraint": null, "bias_constraint": null}, "inbound_nodes": [[["mixed5", 0, 0, {}]]]}, {"name": "conv2d_621", "class_name": "Conv2D", "config": {"name": "conv2d_621", "trainable": true, "filters": 160, "kernel_size": [1, 7], "strides": [1, 1], "padding": "same", "data_format": "channels_last", "dilation_rate": [1, 1], "activation": "linear", "use_bias": false, "kernel_initializer": {"class_name": "VarianceScaling", "config": {"scale": 1.0, "mode": "fan_avg", "distribution": "uniform", "seed": null}}, "bias_initializer": {"class_name": "Zeros", "config": {}}, "kernel_regularizer": null, "bias_regularizer": null, "activity_regularizer": null, "kernel_constraint": null, "bias_constraint": null}, "inbound_nodes": [[["activation_620", 0, 0, {}]]]}, {"name": "batch_normalization_616", "class_name": "BatchNormalization", "config": {"name": "batch_normalization_616", "trainable": true, "axis": 3, "momentum": 0.99, "epsilon": 0.001, "center": true, "scale": false, "beta_initializer": {"class_name": "Zeros", "config": {}}, "gamma_initializer": {"class_name": "Ones", "config": {}}, "moving_mean_initializer": {"class_name": "Zeros", "config": {}}, "moving_variance_initializer": {"class_name": "Ones", "config": {}}, "beta_regularizer": null, "gamma_regularizer": null, "beta_constraint": null, "gamma_constraint": null}, "inbound_nodes": [[["conv2d_616", 0, 0, {}]]]}, {"name": "batch_normalization_621", "class_name": "BatchNormalization", "config": {"name": "batch_normalization_621", "trainable": true, "axis": 3, "momentum": 0.99, "epsilon": 0.001, "center": true, "scale": false, "beta_initializer": {"class_name": "Zeros", "config": {}}, "gamma_initializer": {"class_name": "Ones", "config": {}}, "moving_mean_initializer": {"class_name": "Zeros", "config": {}}, "moving_variance_initializer": {"class_name": "Ones", "config": {}}, "beta_regularizer": null, "gamma_regularizer": null, "beta_constraint": null, "gamma_constraint": null}, "inbound_nodes": [[["conv2d_621", 0, 0, {}]]]}, {"name": "activation_616", "class_name": "Activation", "config": {"name": "activation_616", "trainable": true, "activation": "relu"}, "inbound_nodes": [[["batch_normalization_616", 0, 0, {}]]]}, {"name": "activation_621", "class_name": "Activation", "config": {"name": "activation_621", "trainable": true, "activation": "relu"}, "inbound_nodes": [[["batch_normalization_621", 0, 0, {}]]]}, {"name": "conv2d_617", "class_name": "Conv2D", "config": {"name": "conv2d_617", "trainable": true, "filters": 160, "kernel_size": [1, 7], "strides": [1, 1], "padding": "same", "data_format": "channels_last", "dilation_rate": [1, 1], "activation": "linear", "use_bias": false, "kernel_initializer": {"class_name": "VarianceScaling", "config": {"scale": 1.0, "mode": "fan_avg", "distribution": "uniform", "seed": null}}, "bias_initializer": {"class_name": "Zeros", "config": {}}, "kernel_regularizer": null, "bias_regularizer": null, "activity_regularizer": null, "kernel_constraint": null, "bias_constraint": null}, "inbound_nodes": [[["activation_616", 0, 0, {}]]]}, {"name": "conv2d_622", "class_name": "Conv2D", "config": {"name": "conv2d_622", "trainable": true, "filters": 160, "kernel_size": [7, 1], "strides": [1, 1], "padding": "same", "data_format": "channels_last", "dilation_rate": [1, 1], "activation": "linear", "use_bias": false, "kernel_initializer": {"class_name": "VarianceScaling", "config": {"scale": 1.0, "mode": "fan_avg", "distribution": "uniform", "seed": null}}, "bias_initializer": {"class_name": "Zeros", "config": {}}, "kernel_regularizer": null, "bias_regularizer": null, "activity_regularizer": null, "kernel_constraint": null, "bias_constraint": null}, "inbound_nodes": [[["activation_621", 0, 0, {}]]]}, {"name": "batch_normalization_617", "class_name": "BatchNormalization", "config": {"name": "batch_normalization_617", "trainable": true, "axis": 3, "momentum": 0.99, "epsilon": 0.001, "center": true, "scale": false, "beta_initializer": {"class_name": "Zeros", "config": {}}, "gamma_initializer": {"class_name": "Ones", "config": {}}, "moving_mean_initializer": {"class_name": "Zeros", "config": {}}, "moving_variance_initializer": {"class_name": "Ones", "config": {}}, "beta_regularizer": null, "gamma_regularizer": null, "beta_constraint": null, "gamma_constraint": null}, "inbound_nodes": [[["conv2d_617", 0, 0, {}]]]}, {"name": "batch_normalization_622", "class_name": "BatchNormalization", "config": {"name": "batch_normalization_622", "trainable": true, "axis": 3, "momentum": 0.99, "epsilon": 0.001, "center": true, "scale": false, "beta_initializer": {"class_name": "Zeros", "config": {}}, "gamma_initializer": {"class_name": "Ones", "config": {}}, "moving_mean_initializer": {"class_name": "Zeros", "config": {}}, "moving_variance_initializer": {"class_name": "Ones", "config": {}}, "beta_regularizer": null, "gamma_regularizer": null, "beta_constraint": null, "gamma_constraint": null}, "inbound_nodes": [[["conv2d_622", 0, 0, {}]]]}, {"name": "activation_617", "class_name": "Activation", "config": {"name": "activation_617", "trainable": true, "activation": "relu"}, "inbound_nodes": [[["batch_normalization_617", 0, 0, {}]]]}, {"name": "activation_622", "class_name": "Activation", "config": {"name": "activation_622", "trainable": true, "activation": "relu"}, "inbound_nodes": [[["batch_normalization_622", 0, 0, {}]]]}, {"name": "average_pooling2d_60", "class_name": "AveragePooling2D", "config": {"name": "average_pooling2d_60", "trainable": true, "pool_size": [3, 3], "padding": "same", "strides": [1, 1], "data_format": "channels_last"}, "inbound_nodes": [[["mixed5", 0, 0, {}]]]}, {"name": "conv2d_615", "class_name": "Conv2D", "config": {"name": "conv2d_615", "trainable": true, "filters": 192, "kernel_size": [1, 1], "strides": [1, 1], "padding": "same", "data_format": "channels_last", "dilation_rate": [1, 1], "activation": "linear", "use_bias": false, "kernel_initializer": {"class_name": "VarianceScaling", "config": {"scale": 1.0, "mode": "fan_avg", "distribution": "uniform", "seed": null}}, "bias_initializer": {"class_name": "Zeros", "config": {}}, "kernel_regularizer": null, "bias_regularizer": null, "activity_regularizer": null, "kernel_constraint": null, "bias_constraint": null}, "inbound_nodes": [[["mixed5", 0, 0, {}]]]}, {"name": "conv2d_618", "class_name": "Conv2D", "config": {"name": "conv2d_618", "trainable": true, "filters": 192, "kernel_size": [7, 1], "strides": [1, 1], "padding": "same", "data_format": "channels_last", "dilation_rate": [1, 1], "activation": "linear", "use_bias": false, "kernel_initializer": {"class_name": "VarianceScaling", "config": {"scale": 1.0, "mode": "fan_avg", "distribution": "uniform", "seed": null}}, "bias_initializer": {"class_name": "Zeros", "config": {}}, "kernel_regularizer": null, "bias_regularizer": null, "activity_regularizer": null, "kernel_constraint": null, "bias_constraint": null}, "inbound_nodes": [[["activation_617", 0, 0, {}]]]}, {"name": "conv2d_623", "class_name": "Conv2D", "config": {"name": "conv2d_623", "trainable": true, "filters": 192, "kernel_size": [1, 7], "strides": [1, 1], "padding": "same", "data_format": "channels_last", "dilation_rate": [1, 1], "activation": "linear", "use_bias": false, "kernel_initializer": {"class_name": "VarianceScaling", "config": {"scale": 1.0, "mode": "fan_avg", "distribution": "uniform", "seed": null}}, "bias_initializer": {"class_name": "Zeros", "config": {}}, "kernel_regularizer": null, "bias_regularizer": null, "activity_regularizer": null, "kernel_constraint": null, "bias_constraint": null}, "inbound_nodes": [[["activation_622", 0, 0, {}]]]}, {"name": "conv2d_624", "class_name": "Conv2D", "config": {"name": "conv2d_624", "trainable": true, "filters": 192, "kernel_size": [1, 1], "strides": [1, 1], "padding": "same", "data_format": "channels_last", "dilation_rate": [1, 1], "activation": "linear", "use_bias": false, "kernel_initializer": {"class_name": "VarianceScaling", "config": {"scale": 1.0, "mode": "fan_avg", "distribution": "uniform", "seed": null}}, "bias_initializer": {"class_name": "Zeros", "config": {}}, "kernel_regularizer": null, "bias_regularizer": null, "activity_regularizer": null, "kernel_constraint": null, "bias_constraint": null}, "inbound_nodes": [[["average_pooling2d_60", 0, 0, {}]]]}, {"name": "batch_normalization_615", "class_name": "BatchNormalization", "config": {"name": "batch_normalization_615", "trainable": true, "axis": 3, "momentum": 0.99, "epsilon": 0.001, "center": true, "scale": false, "beta_initializer": {"class_name": "Zeros", "config": {}}, "gamma_initializer": {"class_name": "Ones", "config": {}}, "moving_mean_initializer": {"class_name": "Zeros", "config": {}}, "moving_variance_initializer": {"class_name": "Ones", "config": {}}, "beta_regularizer": null, "gamma_regularizer": null, "beta_constraint": null, "gamma_constraint": null}, "inbound_nodes": [[["conv2d_615", 0, 0, {}]]]}, {"name": "batch_normalization_618", "class_name": "BatchNormalization", "config": {"name": "batch_normalization_618", "trainable": true, "axis": 3, "momentum": 0.99, "epsilon": 0.001, "center": true, "scale": false, "beta_initializer": {"class_name": "Zeros", "config": {}}, "gamma_initializer": {"class_name": "Ones", "config": {}}, "moving_mean_initializer": {"class_name": "Zeros", "config": {}}, "moving_variance_initializer": {"class_name": "Ones", "config": {}}, "beta_regularizer": null, "gamma_regularizer": null, "beta_constraint": null, "gamma_constraint": null}, "inbound_nodes": [[["conv2d_618", 0, 0, {}]]]}, {"name": "batch_normalization_623", "class_name": "BatchNormalization", "config": {"name": "batch_normalization_623", "trainable": true, "axis": 3, "momentum": 0.99, "epsilon": 0.001, "center": true, "scale": false, "beta_initializer": {"class_name": "Zeros", "config": {}}, "gamma_initializer": {"class_name": "Ones", "config": {}}, "moving_mean_initializer": {"class_name": "Zeros", "config": {}}, "moving_variance_initializer": {"class_name": "Ones", "config": {}}, "beta_regularizer": null, "gamma_regularizer": null, "beta_constraint": null, "gamma_constraint": null}, "inbound_nodes": [[["conv2d_623", 0, 0, {}]]]}, {"name": "batch_normalization_624", "class_name": "BatchNormalization", "config": {"name": "batch_normalization_624", "trainable": true, "axis": 3, "momentum": 0.99, "epsilon": 0.001, "center": true, "scale": false, "beta_initializer": {"class_name": "Zeros", "config": {}}, "gamma_initializer": {"class_name": "Ones", "config": {}}, "moving_mean_initializer": {"class_name": "Zeros", "config": {}}, "moving_variance_initializer": {"class_name": "Ones", "config": {}}, "beta_regularizer": null, "gamma_regularizer": null, "beta_constraint": null, "gamma_constraint": null}, "inbound_nodes": [[["conv2d_624", 0, 0, {}]]]}, {"name": "activation_615", "class_name": "Activation", "config": {"name": "activation_615", "trainable": true, "activation": "relu"}, "inbound_nodes": [[["batch_normalization_615", 0, 0, {}]]]}, {"name": "activation_618", "class_name": "Activation", "config": {"name": "activation_618", "trainable": true, "activation": "relu"}, "inbound_nodes": [[["batch_normalization_618", 0, 0, {}]]]}, {"name": "activation_623", "class_name": "Activation", "config": {"name": "activation_623", "trainable": true, "activation": "relu"}, "inbound_nodes": [[["batch_normalization_623", 0, 0, {}]]]}, {"name": "activation_624", "class_name": "Activation", "config": {"name": "activation_624", "trainable": true, "activation": "relu"}, "inbound_nodes": [[["batch_normalization_624", 0, 0, {}]]]}, {"name": "mixed6", "class_name": "Concatenate", "config": {"name": "mixed6", "trainable": true, "axis": 3}, "inbound_nodes": [[["activation_615", 0, 0, {}], ["activation_618", 0, 0, {}], ["activation_623", 0, 0, {}], ["activation_624", 0, 0, {}]]]}, {"name": "conv2d_629", "class_name": "Conv2D", "config": {"name": "conv2d_629", "trainable": true, "filters": 192, "kernel_size": [1, 1], "strides": [1, 1], "padding": "same", "data_format": "channels_last", "dilation_rate": [1, 1], "activation": "linear", "use_bias": false, "kernel_initializer": {"class_name": "VarianceScaling", "config": {"scale": 1.0, "mode": "fan_avg", "distribution": "uniform", "seed": null}}, "bias_initializer": {"class_name": "Zeros", "config": {}}, "kernel_regularizer": null, "bias_regularizer": null, "activity_regularizer": null, "kernel_constraint": null, "bias_constraint": null}, "inbound_nodes": [[["mixed6", 0, 0, {}]]]}, {"name": "batch_normalization_629", "class_name": "BatchNormalization", "config": {"name": "batch_normalization_629", "trainable": true, "axis": 3, "momentum": 0.99, "epsilon": 0.001, "center": true, "scale": false, "beta_initializer": {"class_name": "Zeros", "config": {}}, "gamma_initializer": {"class_name": "Ones", "config": {}}, "moving_mean_initializer": {"class_name": "Zeros", "config": {}}, "moving_variance_initializer": {"class_name": "Ones", "config": {}}, "beta_regularizer": null, "gamma_regularizer": null, "beta_constraint": null, "gamma_constraint": null}, "inbound_nodes": [[["conv2d_629", 0, 0, {}]]]}, {"name": "activation_629", "class_name": "Activation", "config": {"name": "activation_629", "trainable": true, "activation": "relu"}, "inbound_nodes": [[["batch_normalization_629", 0, 0, {}]]]}, {"name": "conv2d_630", "class_name": "Conv2D", "config": {"name": "conv2d_630", "trainable": true, "filters": 192, "kernel_size": [7, 1], "strides": [1, 1], "padding": "same", "data_format": "channels_last", "dilation_rate": [1, 1], "activation": "linear", "use_bias": false, "kernel_initializer": {"class_name": "VarianceScaling", "config": {"scale": 1.0, "mode": "fan_avg", "distribution": "uniform", "seed": null}}, "bias_initializer": {"class_name": "Zeros", "config": {}}, "kernel_regularizer": null, "bias_regularizer": null, "activity_regularizer": null, "kernel_constraint": null, "bias_constraint": null}, "inbound_nodes": [[["activation_629", 0, 0, {}]]]}, {"name": "batch_normalization_630", "class_name": "BatchNormalization", "config": {"name": "batch_normalization_630", "trainable": true, "axis": 3, "momentum": 0.99, "epsilon": 0.001, "center": true, "scale": false, "beta_initializer": {"class_name": "Zeros", "config": {}}, "gamma_initializer": {"class_name": "Ones", "config": {}}, "moving_mean_initializer": {"class_name": "Zeros", "config": {}}, "moving_variance_initializer": {"class_name": "Ones", "config": {}}, "beta_regularizer": null, "gamma_regularizer": null, "beta_constraint": null, "gamma_constraint": null}, "inbound_nodes": [[["conv2d_630", 0, 0, {}]]]}, {"name": "activation_630", "class_name": "Activation", "config": {"name": "activation_630", "trainable": true, "activation": "relu"}, "inbound_nodes": [[["batch_normalization_630", 0, 0, {}]]]}, {"name": "conv2d_626", "class_name": "Conv2D", "config": {"name": "conv2d_626", "trainable": true, "filters": 192, "kernel_size": [1, 1], "strides": [1, 1], "padding": "same", "data_format": "channels_last", "dilation_rate": [1, 1], "activation": "linear", "use_bias": false, "kernel_initializer": {"class_name": "VarianceScaling", "config": {"scale": 1.0, "mode": "fan_avg", "distribution": "uniform", "seed": null}}, "bias_initializer": {"class_name": "Zeros", "config": {}}, "kernel_regularizer": null, "bias_regularizer": null, "activity_regularizer": null, "kernel_constraint": null, "bias_constraint": null}, "inbound_nodes": [[["mixed6", 0, 0, {}]]]}, {"name": "conv2d_631", "class_name": "Conv2D", "config": {"name": "conv2d_631", "trainable": true, "filters": 192, "kernel_size": [1, 7], "strides": [1, 1], "padding": "same", "data_format": "channels_last", "dilation_rate": [1, 1], "activation": "linear", "use_bias": false, "kernel_initializer": {"class_name": "VarianceScaling", "config": {"scale": 1.0, "mode": "fan_avg", "distribution": "uniform", "seed": null}}, "bias_initializer": {"class_name": "Zeros", "config": {}}, "kernel_regularizer": null, "bias_regularizer": null, "activity_regularizer": null, "kernel_constraint": null, "bias_constraint": null}, "inbound_nodes": [[["activation_630", 0, 0, {}]]]}, {"name": "batch_normalization_626", "class_name": "BatchNormalization", "config": {"name": "batch_normalization_626", "trainable": true, "axis": 3, "momentum": 0.99, "epsilon": 0.001, "center": true, "scale": false, "beta_initializer": {"class_name": "Zeros", "config": {}}, "gamma_initializer": {"class_name": "Ones", "config": {}}, "moving_mean_initializer": {"class_name": "Zeros", "config": {}}, "moving_variance_initializer": {"class_name": "Ones", "config": {}}, "beta_regularizer": null, "gamma_regularizer": null, "beta_constraint": null, "gamma_constraint": null}, "inbound_nodes": [[["conv2d_626", 0, 0, {}]]]}, {"name": "batch_normalization_631", "class_name": "BatchNormalization", "config": {"name": "batch_normalization_631", "trainable": true, "axis": 3, "momentum": 0.99, "epsilon": 0.001, "center": true, "scale": false, "beta_initializer": {"class_name": "Zeros", "config": {}}, "gamma_initializer": {"class_name": "Ones", "config": {}}, "moving_mean_initializer": {"class_name": "Zeros", "config": {}}, "moving_variance_initializer": {"class_name": "Ones", "config": {}}, "beta_regularizer": null, "gamma_regularizer": null, "beta_constraint": null, "gamma_constraint": null}, "inbound_nodes": [[["conv2d_631", 0, 0, {}]]]}, {"name": "activation_626", "class_name": "Activation", "config": {"name": "activation_626", "trainable": true, "activation": "relu"}, "inbound_nodes": [[["batch_normalization_626", 0, 0, {}]]]}, {"name": "activation_631", "class_name": "Activation", "config": {"name": "activation_631", "trainable": true, "activation": "relu"}, "inbound_nodes": [[["batch_normalization_631", 0, 0, {}]]]}, {"name": "conv2d_627", "class_name": "Conv2D", "config": {"name": "conv2d_627", "trainable": true, "filters": 192, "kernel_size": [1, 7], "strides": [1, 1], "padding": "same", "data_format": "channels_last", "dilation_rate": [1, 1], "activation": "linear", "use_bias": false, "kernel_initializer": {"class_name": "VarianceScaling", "config": {"scale": 1.0, "mode": "fan_avg", "distribution": "uniform", "seed": null}}, "bias_initializer": {"class_name": "Zeros", "config": {}}, "kernel_regularizer": null, "bias_regularizer": null, "activity_regularizer": null, "kernel_constraint": null, "bias_constraint": null}, "inbound_nodes": [[["activation_626", 0, 0, {}]]]}, {"name": "conv2d_632", "class_name": "Conv2D", "config": {"name": "conv2d_632", "trainable": true, "filters": 192, "kernel_size": [7, 1], "strides": [1, 1], "padding": "same", "data_format": "channels_last", "dilation_rate": [1, 1], "activation": "linear", "use_bias": false, "kernel_initializer": {"class_name": "VarianceScaling", "config": {"scale": 1.0, "mode": "fan_avg", "distribution": "uniform", "seed": null}}, "bias_initializer": {"class_name": "Zeros", "config": {}}, "kernel_regularizer": null, "bias_regularizer": null, "activity_regularizer": null, "kernel_constraint": null, "bias_constraint": null}, "inbound_nodes": [[["activation_631", 0, 0, {}]]]}, {"name": "batch_normalization_627", "class_name": "BatchNormalization", "config": {"name": "batch_normalization_627", "trainable": true, "axis": 3, "momentum": 0.99, "epsilon": 0.001, "center": true, "scale": false, "beta_initializer": {"class_name": "Zeros", "config": {}}, "gamma_initializer": {"class_name": "Ones", "config": {}}, "moving_mean_initializer": {"class_name": "Zeros", "config": {}}, "moving_variance_initializer": {"class_name": "Ones", "config": {}}, "beta_regularizer": null, "gamma_regularizer": null, "beta_constraint": null, "gamma_constraint": null}, "inbound_nodes": [[["conv2d_627", 0, 0, {}]]]}, {"name": "batch_normalization_632", "class_name": "BatchNormalization", "config": {"name": "batch_normalization_632", "trainable": true, "axis": 3, "momentum": 0.99, "epsilon": 0.001, "center": true, "scale": false, "beta_initializer": {"class_name": "Zeros", "config": {}}, "gamma_initializer": {"class_name": "Ones", "config": {}}, "moving_mean_initializer": {"class_name": "Zeros", "config": {}}, "moving_variance_initializer": {"class_name": "Ones", "config": {}}, "beta_regularizer": null, "gamma_regularizer": null, "beta_constraint": null, "gamma_constraint": null}, "inbound_nodes": [[["conv2d_632", 0, 0, {}]]]}, {"name": "activation_627", "class_name": "Activation", "config": {"name": "activation_627", "trainable": true, "activation": "relu"}, "inbound_nodes": [[["batch_normalization_627", 0, 0, {}]]]}, {"name": "activation_632", "class_name": "Activation", "config": {"name": "activation_632", "trainable": true, "activation": "relu"}, "inbound_nodes": [[["batch_normalization_632", 0, 0, {}]]]}, {"name": "average_pooling2d_61", "class_name": "AveragePooling2D", "config": {"name": "average_pooling2d_61", "trainable": true, "pool_size": [3, 3], "padding": "same", "strides": [1, 1], "data_format": "channels_last"}, "inbound_nodes": [[["mixed6", 0, 0, {}]]]}, {"name": "conv2d_625", "class_name": "Conv2D", "config": {"name": "conv2d_625", "trainable": true, "filters": 192, "kernel_size": [1, 1], "strides": [1, 1], "padding": "same", "data_format": "channels_last", "dilation_rate": [1, 1], "activation": "linear", "use_bias": false, "kernel_initializer": {"class_name": "VarianceScaling", "config": {"scale": 1.0, "mode": "fan_avg", "distribution": "uniform", "seed": null}}, "bias_initializer": {"class_name": "Zeros", "config": {}}, "kernel_regularizer": null, "bias_regularizer": null, "activity_regularizer": null, "kernel_constraint": null, "bias_constraint": null}, "inbound_nodes": [[["mixed6", 0, 0, {}]]]}, {"name": "conv2d_628", "class_name": "Conv2D", "config": {"name": "conv2d_628", "trainable": true, "filters": 192, "kernel_size": [7, 1], "strides": [1, 1], "padding": "same", "data_format": "channels_last", "dilation_rate": [1, 1], "activation": "linear", "use_bias": false, "kernel_initializer": {"class_name": "VarianceScaling", "config": {"scale": 1.0, "mode": "fan_avg", "distribution": "uniform", "seed": null}}, "bias_initializer": {"class_name": "Zeros", "config": {}}, "kernel_regularizer": null, "bias_regularizer": null, "activity_regularizer": null, "kernel_constraint": null, "bias_constraint": null}, "inbound_nodes": [[["activation_627", 0, 0, {}]]]}, {"name": "conv2d_633", "class_name": "Conv2D", "config": {"name": "conv2d_633", "trainable": true, "filters": 192, "kernel_size": [1, 7], "strides": [1, 1], "padding": "same", "data_format": "channels_last", "dilation_rate": [1, 1], "activation": "linear", "use_bias": false, "kernel_initializer": {"class_name": "VarianceScaling", "config": {"scale": 1.0, "mode": "fan_avg", "distribution": "uniform", "seed": null}}, "bias_initializer": {"class_name": "Zeros", "config": {}}, "kernel_regularizer": null, "bias_regularizer": null, "activity_regularizer": null, "kernel_constraint": null, "bias_constraint": null}, "inbound_nodes": [[["activation_632", 0, 0, {}]]]}, {"name": "conv2d_634", "class_name": "Conv2D", "config": {"name": "conv2d_634", "trainable": true, "filters": 192, "kernel_size": [1, 1], "strides": [1, 1], "padding": "same", "data_format": "channels_last", "dilation_rate": [1, 1], "activation": "linear", "use_bias": false, "kernel_initializer": {"class_name": "VarianceScaling", "config": {"scale": 1.0, "mode": "fan_avg", "distribution": "uniform", "seed": null}}, "bias_initializer": {"class_name": "Zeros", "config": {}}, "kernel_regularizer": null, "bias_regularizer": null, "activity_regularizer": null, "kernel_constraint": null, "bias_constraint": null}, "inbound_nodes": [[["average_pooling2d_61", 0, 0, {}]]]}, {"name": "batch_normalization_625", "class_name": "BatchNormalization", "config": {"name": "batch_normalization_625", "trainable": true, "axis": 3, "momentum": 0.99, "epsilon": 0.001, "center": true, "scale": false, "beta_initializer": {"class_name": "Zeros", "config": {}}, "gamma_initializer": {"class_name": "Ones", "config": {}}, "moving_mean_initializer": {"class_name": "Zeros", "config": {}}, "moving_variance_initializer": {"class_name": "Ones", "config": {}}, "beta_regularizer": null, "gamma_regularizer": null, "beta_constraint": null, "gamma_constraint": null}, "inbound_nodes": [[["conv2d_625", 0, 0, {}]]]}, {"name": "batch_normalization_628", "class_name": "BatchNormalization", "config": {"name": "batch_normalization_628", "trainable": true, "axis": 3, "momentum": 0.99, "epsilon": 0.001, "center": true, "scale": false, "beta_initializer": {"class_name": "Zeros", "config": {}}, "gamma_initializer": {"class_name": "Ones", "config": {}}, "moving_mean_initializer": {"class_name": "Zeros", "config": {}}, "moving_variance_initializer": {"class_name": "Ones", "config": {}}, "beta_regularizer": null, "gamma_regularizer": null, "beta_constraint": null, "gamma_constraint": null}, "inbound_nodes": [[["conv2d_628", 0, 0, {}]]]}, {"name": "batch_normalization_633", "class_name": "BatchNormalization", "config": {"name": "batch_normalization_633", "trainable": true, "axis": 3, "momentum": 0.99, "epsilon": 0.001, "center": true, "scale": false, "beta_initializer": {"class_name": "Zeros", "config": {}}, "gamma_initializer": {"class_name": "Ones", "config": {}}, "moving_mean_initializer": {"class_name": "Zeros", "config": {}}, "moving_variance_initializer": {"class_name": "Ones", "config": {}}, "beta_regularizer": null, "gamma_regularizer": null, "beta_constraint": null, "gamma_constraint": null}, "inbound_nodes": [[["conv2d_633", 0, 0, {}]]]}, {"name": "batch_normalization_634", "class_name": "BatchNormalization", "config": {"name": "batch_normalization_634", "trainable": true, "axis": 3, "momentum": 0.99, "epsilon": 0.001, "center": true, "scale": false, "beta_initializer": {"class_name": "Zeros", "config": {}}, "gamma_initializer": {"class_name": "Ones", "config": {}}, "moving_mean_initializer": {"class_name": "Zeros", "config": {}}, "moving_variance_initializer": {"class_name": "Ones", "config": {}}, "beta_regularizer": null, "gamma_regularizer": null, "beta_constraint": null, "gamma_constraint": null}, "inbound_nodes": [[["conv2d_634", 0, 0, {}]]]}, {"name": "activation_625", "class_name": "Activation", "config": {"name": "activation_625", "trainable": true, "activation": "relu"}, "inbound_nodes": [[["batch_normalization_625", 0, 0, {}]]]}, {"name": "activation_628", "class_name": "Activation", "config": {"name": "activation_628", "trainable": true, "activation": "relu"}, "inbound_nodes": [[["batch_normalization_628", 0, 0, {}]]]}, {"name": "activation_633", "class_name": "Activation", "config": {"name": "activation_633", "trainable": true, "activation": "relu"}, "inbound_nodes": [[["batch_normalization_633", 0, 0, {}]]]}, {"name": "activation_634", "class_name": "Activation", "config": {"name": "activation_634", "trainable": true, "activation": "relu"}, "inbound_nodes": [[["batch_normalization_634", 0, 0, {}]]]}, {"name": "mixed7", "class_name": "Concatenate", "config": {"name": "mixed7", "trainable": true, "axis": 3}, "inbound_nodes": [[["activation_625", 0, 0, {}], ["activation_628", 0, 0, {}], ["activation_633", 0, 0, {}], ["activation_634", 0, 0, {}]]]}, {"name": "conv2d_637", "class_name": "Conv2D", "config": {"name": "conv2d_637", "trainable": true, "filters": 192, "kernel_size": [1, 1], "strides": [1, 1], "padding": "same", "data_format": "channels_last", "dilation_rate": [1, 1], "activation": "linear", "use_bias": false, "kernel_initializer": {"class_name": "VarianceScaling", "config": {"scale": 1.0, "mode": "fan_avg", "distribution": "uniform", "seed": null}}, "bias_initializer": {"class_name": "Zeros", "config": {}}, "kernel_regularizer": null, "bias_regularizer": null, "activity_regularizer": null, "kernel_constraint": null, "bias_constraint": null}, "inbound_nodes": [[["mixed7", 0, 0, {}]]]}, {"name": "batch_normalization_637", "class_name": "BatchNormalization", "config": {"name": "batch_normalization_637", "trainable": true, "axis": 3, "momentum": 0.99, "epsilon": 0.001, "center": true, "scale": false, "beta_initializer": {"class_name": "Zeros", "config": {}}, "gamma_initializer": {"class_name": "Ones", "config": {}}, "moving_mean_initializer": {"class_name": "Zeros", "config": {}}, "moving_variance_initializer": {"class_name": "Ones", "config": {}}, "beta_regularizer": null, "gamma_regularizer": null, "beta_constraint": null, "gamma_constraint": null}, "inbound_nodes": [[["conv2d_637", 0, 0, {}]]]}, {"name": "activation_637", "class_name": "Activation", "config": {"name": "activation_637", "trainable": true, "activation": "relu"}, "inbound_nodes": [[["batch_normalization_637", 0, 0, {}]]]}, {"name": "conv2d_638", "class_name": "Conv2D", "config": {"name": "conv2d_638", "trainable": true, "filters": 192, "kernel_size": [1, 7], "strides": [1, 1], "padding": "same", "data_format": "channels_last", "dilation_rate": [1, 1], "activation": "linear", "use_bias": false, "kernel_initializer": {"class_name": "VarianceScaling", "config": {"scale": 1.0, "mode": "fan_avg", "distribution": "uniform", "seed": null}}, "bias_initializer": {"class_name": "Zeros", "config": {}}, "kernel_regularizer": null, "bias_regularizer": null, "activity_regularizer": null, "kernel_constraint": null, "bias_constraint": null}, "inbound_nodes": [[["activation_637", 0, 0, {}]]]}, {"name": "batch_normalization_638", "class_name": "BatchNormalization", "config": {"name": "batch_normalization_638", "trainable": true, "axis": 3, "momentum": 0.99, "epsilon": 0.001, "center": true, "scale": false, "beta_initializer": {"class_name": "Zeros", "config": {}}, "gamma_initializer": {"class_name": "Ones", "config": {}}, "moving_mean_initializer": {"class_name": "Zeros", "config": {}}, "moving_variance_initializer": {"class_name": "Ones", "config": {}}, "beta_regularizer": null, "gamma_regularizer": null, "beta_constraint": null, "gamma_constraint": null}, "inbound_nodes": [[["conv2d_638", 0, 0, {}]]]}, {"name": "activation_638", "class_name": "Activation", "config": {"name": "activation_638", "trainable": true, "activation": "relu"}, "inbound_nodes": [[["batch_normalization_638", 0, 0, {}]]]}, {"name": "conv2d_635", "class_name": "Conv2D", "config": {"name": "conv2d_635", "trainable": true, "filters": 192, "kernel_size": [1, 1], "strides": [1, 1], "padding": "same", "data_format": "channels_last", "dilation_rate": [1, 1], "activation": "linear", "use_bias": false, "kernel_initializer": {"class_name": "VarianceScaling", "config": {"scale": 1.0, "mode": "fan_avg", "distribution": "uniform", "seed": null}}, "bias_initializer": {"class_name": "Zeros", "config": {}}, "kernel_regularizer": null, "bias_regularizer": null, "activity_regularizer": null, "kernel_constraint": null, "bias_constraint": null}, "inbound_nodes": [[["mixed7", 0, 0, {}]]]}, {"name": "conv2d_639", "class_name": "Conv2D", "config": {"name": "conv2d_639", "trainable": true, "filters": 192, "kernel_size": [7, 1], "strides": [1, 1], "padding": "same", "data_format": "channels_last", "dilation_rate": [1, 1], "activation": "linear", "use_bias": false, "kernel_initializer": {"class_name": "VarianceScaling", "config": {"scale": 1.0, "mode": "fan_avg", "distribution": "uniform", "seed": null}}, "bias_initializer": {"class_name": "Zeros", "config": {}}, "kernel_regularizer": null, "bias_regularizer": null, "activity_regularizer": null, "kernel_constraint": null, "bias_constraint": null}, "inbound_nodes": [[["activation_638", 0, 0, {}]]]}, {"name": "batch_normalization_635", "class_name": "BatchNormalization", "config": {"name": "batch_normalization_635", "trainable": true, "axis": 3, "momentum": 0.99, "epsilon": 0.001, "center": true, "scale": false, "beta_initializer": {"class_name": "Zeros", "config": {}}, "gamma_initializer": {"class_name": "Ones", "config": {}}, "moving_mean_initializer": {"class_name": "Zeros", "config": {}}, "moving_variance_initializer": {"class_name": "Ones", "config": {}}, "beta_regularizer": null, "gamma_regularizer": null, "beta_constraint": null, "gamma_constraint": null}, "inbound_nodes": [[["conv2d_635", 0, 0, {}]]]}, {"name": "batch_normalization_639", "class_name": "BatchNormalization", "config": {"name": "batch_normalization_639", "trainable": true, "axis": 3, "momentum": 0.99, "epsilon": 0.001, "center": true, "scale": false, "beta_initializer": {"class_name": "Zeros", "config": {}}, "gamma_initializer": {"class_name": "Ones", "config": {}}, "moving_mean_initializer": {"class_name": "Zeros", "config": {}}, "moving_variance_initializer": {"class_name": "Ones", "config": {}}, "beta_regularizer": null, "gamma_regularizer": null, "beta_constraint": null, "gamma_constraint": null}, "inbound_nodes": [[["conv2d_639", 0, 0, {}]]]}, {"name": "activation_635", "class_name": "Activation", "config": {"name": "activation_635", "trainable": true, "activation": "relu"}, "inbound_nodes": [[["batch_normalization_635", 0, 0, {}]]]}, {"name": "activation_639", "class_name": "Activation", "config": {"name": "activation_639", "trainable": true, "activation": "relu"}, "inbound_nodes": [[["batch_normalization_639", 0, 0, {}]]]}, {"name": "conv2d_636", "class_name": "Conv2D", "config": {"name": "conv2d_636", "trainable": true, "filters": 320, "kernel_size": [3, 3], "strides": [2, 2], "padding": "valid", "data_format": "channels_last", "dilation_rate": [1, 1], "activation": "linear", "use_bias": false, "kernel_initializer": {"class_name": "VarianceScaling", "config": {"scale": 1.0, "mode": "fan_avg", "distribution": "uniform", "seed": null}}, "bias_initializer": {"class_name": "Zeros", "config": {}}, "kernel_regularizer": null, "bias_regularizer": null, "activity_regularizer": null, "kernel_constraint": null, "bias_constraint": null}, "inbound_nodes": [[["activation_635", 0, 0, {}]]]}, {"name": "conv2d_640", "class_name": "Conv2D", "config": {"name": "conv2d_640", "trainable": true, "filters": 192, "kernel_size": [3, 3], "strides": [2, 2], "padding": "valid", "data_format": "channels_last", "dilation_rate": [1, 1], "activation": "linear", "use_bias": false, "kernel_initializer": {"class_name": "VarianceScaling", "config": {"scale": 1.0, "mode": "fan_avg", "distribution": "uniform", "seed": null}}, "bias_initializer": {"class_name": "Zeros", "config": {}}, "kernel_regularizer": null, "bias_regularizer": null, "activity_regularizer": null, "kernel_constraint": null, "bias_constraint": null}, "inbound_nodes": [[["activation_639", 0, 0, {}]]]}, {"name": "batch_normalization_636", "class_name": "BatchNormalization", "config": {"name": "batch_normalization_636", "trainable": true, "axis": 3, "momentum": 0.99, "epsilon": 0.001, "center": true, "scale": false, "beta_initializer": {"class_name": "Zeros", "config": {}}, "gamma_initializer": {"class_name": "Ones", "config": {}}, "moving_mean_initializer": {"class_name": "Zeros", "config": {}}, "moving_variance_initializer": {"class_name": "Ones", "config": {}}, "beta_regularizer": null, "gamma_regularizer": null, "beta_constraint": null, "gamma_constraint": null}, "inbound_nodes": [[["conv2d_636", 0, 0, {}]]]}, {"name": "batch_normalization_640", "class_name": "BatchNormalization", "config": {"name": "batch_normalization_640", "trainable": true, "axis": 3, "momentum": 0.99, "epsilon": 0.001, "center": true, "scale": false, "beta_initializer": {"class_name": "Zeros", "config": {}}, "gamma_initializer": {"class_name": "Ones", "config": {}}, "moving_mean_initializer": {"class_name": "Zeros", "config": {}}, "moving_variance_initializer": {"class_name": "Ones", "config": {}}, "beta_regularizer": null, "gamma_regularizer": null, "beta_constraint": null, "gamma_constraint": null}, "inbound_nodes": [[["conv2d_640", 0, 0, {}]]]}, {"name": "activation_636", "class_name": "Activation", "config": {"name": "activation_636", "trainable": true, "activation": "relu"}, "inbound_nodes": [[["batch_normalization_636", 0, 0, {}]]]}, {"name": "activation_640", "class_name": "Activation", "config": {"name": "activation_640", "trainable": true, "activation": "relu"}, "inbound_nodes": [[["batch_normalization_640", 0, 0, {}]]]}, {"name": "max_pooling2d_28", "class_name": "MaxPooling2D", "config": {"name": "max_pooling2d_28", "trainable": true, "pool_size": [3, 3], "padding": "valid", "strides": [2, 2], "data_format": "channels_last"}, "inbound_nodes": [[["mixed7", 0, 0, {}]]]}, {"name": "mixed8", "class_name": "Concatenate", "config": {"name": "mixed8", "trainable": true, "axis": 3}, "inbound_nodes": [[["activation_636", 0, 0, {}], ["activation_640", 0, 0, {}], ["max_pooling2d_28", 0, 0, {}]]]}, {"name": "conv2d_645", "class_name": "Conv2D", "config": {"name": "conv2d_645", "trainable": true, "filters": 448, "kernel_size": [1, 1], "strides": [1, 1], "padding": "same", "data_format": "channels_last", "dilation_rate": [1, 1], "activation": "linear", "use_bias": false, "kernel_initializer": {"class_name": "VarianceScaling", "config": {"scale": 1.0, "mode": "fan_avg", "distribution": "uniform", "seed": null}}, "bias_initializer": {"class_name": "Zeros", "config": {}}, "kernel_regularizer": null, "bias_regularizer": null, "activity_regularizer": null, "kernel_constraint": null, "bias_constraint": null}, "inbound_nodes": [[["mixed8", 0, 0, {}]]]}, {"name": "batch_normalization_645", "class_name": "BatchNormalization", "config": {"name": "batch_normalization_645", "trainable": true, "axis": 3, "momentum": 0.99, "epsilon": 0.001, "center": true, "scale": false, "beta_initializer": {"class_name": "Zeros", "config": {}}, "gamma_initializer": {"class_name": "Ones", "config": {}}, "moving_mean_initializer": {"class_name": "Zeros", "config": {}}, "moving_variance_initializer": {"class_name": "Ones", "config": {}}, "beta_regularizer": null, "gamma_regularizer": null, "beta_constraint": null, "gamma_constraint": null}, "inbound_nodes": [[["conv2d_645", 0, 0, {}]]]}, {"name": "activation_645", "class_name": "Activation", "config": {"name": "activation_645", "trainable": true, "activation": "relu"}, "inbound_nodes": [[["batch_normalization_645", 0, 0, {}]]]}, {"name": "conv2d_642", "class_name": "Conv2D", "config": {"name": "conv2d_642", "trainable": true, "filters": 384, "kernel_size": [1, 1], "strides": [1, 1], "padding": "same", "data_format": "channels_last", "dilation_rate": [1, 1], "activation": "linear", "use_bias": false, "kernel_initializer": {"class_name": "VarianceScaling", "config": {"scale": 1.0, "mode": "fan_avg", "distribution": "uniform", "seed": null}}, "bias_initializer": {"class_name": "Zeros", "config": {}}, "kernel_regularizer": null, "bias_regularizer": null, "activity_regularizer": null, "kernel_constraint": null, "bias_constraint": null}, "inbound_nodes": [[["mixed8", 0, 0, {}]]]}, {"name": "conv2d_646", "class_name": "Conv2D", "config": {"name": "conv2d_646", "trainable": true, "filters": 384, "kernel_size": [3, 3], "strides": [1, 1], "padding": "same", "data_format": "channels_last", "dilation_rate": [1, 1], "activation": "linear", "use_bias": false, "kernel_initializer": {"class_name": "VarianceScaling", "config": {"scale": 1.0, "mode": "fan_avg", "distribution": "uniform", "seed": null}}, "bias_initializer": {"class_name": "Zeros", "config": {}}, "kernel_regularizer": null, "bias_regularizer": null, "activity_regularizer": null, "kernel_constraint": null, "bias_constraint": null}, "inbound_nodes": [[["activation_645", 0, 0, {}]]]}, {"name": "batch_normalization_642", "class_name": "BatchNormalization", "config": {"name": "batch_normalization_642", "trainable": true, "axis": 3, "momentum": 0.99, "epsilon": 0.001, "center": true, "scale": false, "beta_initializer": {"class_name": "Zeros", "config": {}}, "gamma_initializer": {"class_name": "Ones", "config": {}}, "moving_mean_initializer": {"class_name": "Zeros", "config": {}}, "moving_variance_initializer": {"class_name": "Ones", "config": {}}, "beta_regularizer": null, "gamma_regularizer": null, "beta_constraint": null, "gamma_constraint": null}, "inbound_nodes": [[["conv2d_642", 0, 0, {}]]]}, {"name": "batch_normalization_646", "class_name": "BatchNormalization", "config": {"name": "batch_normalization_646", "trainable": true, "axis": 3, "momentum": 0.99, "epsilon": 0.001, "center": true, "scale": false, "beta_initializer": {"class_name": "Zeros", "config": {}}, "gamma_initializer": {"class_name": "Ones", "config": {}}, "moving_mean_initializer": {"class_name": "Zeros", "config": {}}, "moving_variance_initializer": {"class_name": "Ones", "config": {}}, "beta_regularizer": null, "gamma_regularizer": null, "beta_constraint": null, "gamma_constraint": null}, "inbound_nodes": [[["conv2d_646", 0, 0, {}]]]}, {"name": "activation_642", "class_name": "Activation", "config": {"name": "activation_642", "trainable": true, "activation": "relu"}, "inbound_nodes": [[["batch_normalization_642", 0, 0, {}]]]}, {"name": "activation_646", "class_name": "Activation", "config": {"name": "activation_646", "trainable": true, "activation": "relu"}, "inbound_nodes": [[["batch_normalization_646", 0, 0, {}]]]}, {"name": "conv2d_643", "class_name": "Conv2D", "config": {"name": "conv2d_643", "trainable": true, "filters": 384, "kernel_size": [1, 3], "strides": [1, 1], "padding": "same", "data_format": "channels_last", "dilation_rate": [1, 1], "activation": "linear", "use_bias": false, "kernel_initializer": {"class_name": "VarianceScaling", "config": {"scale": 1.0, "mode": "fan_avg", "distribution": "uniform", "seed": null}}, "bias_initializer": {"class_name": "Zeros", "config": {}}, "kernel_regularizer": null, "bias_regularizer": null, "activity_regularizer": null, "kernel_constraint": null, "bias_constraint": null}, "inbound_nodes": [[["activation_642", 0, 0, {}]]]}, {"name": "conv2d_644", "class_name": "Conv2D", "config": {"name": "conv2d_644", "trainable": true, "filters": 384, "kernel_size": [3, 1], "strides": [1, 1], "padding": "same", "data_format": "channels_last", "dilation_rate": [1, 1], "activation": "linear", "use_bias": false, "kernel_initializer": {"class_name": "VarianceScaling", "config": {"scale": 1.0, "mode": "fan_avg", "distribution": "uniform", "seed": null}}, "bias_initializer": {"class_name": "Zeros", "config": {}}, "kernel_regularizer": null, "bias_regularizer": null, "activity_regularizer": null, "kernel_constraint": null, "bias_constraint": null}, "inbound_nodes": [[["activation_642", 0, 0, {}]]]}, {"name": "conv2d_647", "class_name": "Conv2D", "config": {"name": "conv2d_647", "trainable": true, "filters": 384, "kernel_size": [1, 3], "strides": [1, 1], "padding": "same", "data_format": "channels_last", "dilation_rate": [1, 1], "activation": "linear", "use_bias": false, "kernel_initializer": {"class_name": "VarianceScaling", "config": {"scale": 1.0, "mode": "fan_avg", "distribution": "uniform", "seed": null}}, "bias_initializer": {"class_name": "Zeros", "config": {}}, "kernel_regularizer": null, "bias_regularizer": null, "activity_regularizer": null, "kernel_constraint": null, "bias_constraint": null}, "inbound_nodes": [[["activation_646", 0, 0, {}]]]}, {"name": "conv2d_648", "class_name": "Conv2D", "config": {"name": "conv2d_648", "trainable": true, "filters": 384, "kernel_size": [3, 1], "strides": [1, 1], "padding": "same", "data_format": "channels_last", "dilation_rate": [1, 1], "activation": "linear", "use_bias": false, "kernel_initializer": {"class_name": "VarianceScaling", "config": {"scale": 1.0, "mode": "fan_avg", "distribution": "uniform", "seed": null}}, "bias_initializer": {"class_name": "Zeros", "config": {}}, "kernel_regularizer": null, "bias_regularizer": null, "activity_regularizer": null, "kernel_constraint": null, "bias_constraint": null}, "inbound_nodes": [[["activation_646", 0, 0, {}]]]}, {"name": "average_pooling2d_62", "class_name": "AveragePooling2D", "config": {"name": "average_pooling2d_62", "trainable": true, "pool_size": [3, 3], "padding": "same", "strides": [1, 1], "data_format": "channels_last"}, "inbound_nodes": [[["mixed8", 0, 0, {}]]]}, {"name": "conv2d_641", "class_name": "Conv2D", "config": {"name": "conv2d_641", "trainable": true, "filters": 320, "kernel_size": [1, 1], "strides": [1, 1], "padding": "same", "data_format": "channels_last", "dilation_rate": [1, 1], "activation": "linear", "use_bias": false, "kernel_initializer": {"class_name": "VarianceScaling", "config": {"scale": 1.0, "mode": "fan_avg", "distribution": "uniform", "seed": null}}, "bias_initializer": {"class_name": "Zeros", "config": {}}, "kernel_regularizer": null, "bias_regularizer": null, "activity_regularizer": null, "kernel_constraint": null, "bias_constraint": null}, "inbound_nodes": [[["mixed8", 0, 0, {}]]]}, {"name": "batch_normalization_643", "class_name": "BatchNormalization", "config": {"name": "batch_normalization_643", "trainable": true, "axis": 3, "momentum": 0.99, "epsilon": 0.001, "center": true, "scale": false, "beta_initializer": {"class_name": "Zeros", "config": {}}, "gamma_initializer": {"class_name": "Ones", "config": {}}, "moving_mean_initializer": {"class_name": "Zeros", "config": {}}, "moving_variance_initializer": {"class_name": "Ones", "config": {}}, "beta_regularizer": null, "gamma_regularizer": null, "beta_constraint": null, "gamma_constraint": null}, "inbound_nodes": [[["conv2d_643", 0, 0, {}]]]}, {"name": "batch_normalization_644", "class_name": "BatchNormalization", "config": {"name": "batch_normalization_644", "trainable": true, "axis": 3, "momentum": 0.99, "epsilon": 0.001, "center": true, "scale": false, "beta_initializer": {"class_name": "Zeros", "config": {}}, "gamma_initializer": {"class_name": "Ones", "config": {}}, "moving_mean_initializer": {"class_name": "Zeros", "config": {}}, "moving_variance_initializer": {"class_name": "Ones", "config": {}}, "beta_regularizer": null, "gamma_regularizer": null, "beta_constraint": null, "gamma_constraint": null}, "inbound_nodes": [[["conv2d_644", 0, 0, {}]]]}, {"name": "batch_normalization_647", "class_name": "BatchNormalization", "config": {"name": "batch_normalization_647", "trainable": true, "axis": 3, "momentum": 0.99, "epsilon": 0.001, "center": true, "scale": false, "beta_initializer": {"class_name": "Zeros", "config": {}}, "gamma_initializer": {"class_name": "Ones", "config": {}}, "moving_mean_initializer": {"class_name": "Zeros", "config": {}}, "moving_variance_initializer": {"class_name": "Ones", "config": {}}, "beta_regularizer": null, "gamma_regularizer": null, "beta_constraint": null, "gamma_constraint": null}, "inbound_nodes": [[["conv2d_647", 0, 0, {}]]]}, {"name": "batch_normalization_648", "class_name": "BatchNormalization", "config": {"name": "batch_normalization_648", "trainable": true, "axis": 3, "momentum": 0.99, "epsilon": 0.001, "center": true, "scale": false, "beta_initializer": {"class_name": "Zeros", "config": {}}, "gamma_initializer": {"class_name": "Ones", "config": {}}, "moving_mean_initializer": {"class_name": "Zeros", "config": {}}, "moving_variance_initializer": {"class_name": "Ones", "config": {}}, "beta_regularizer": null, "gamma_regularizer": null, "beta_constraint": null, "gamma_constraint": null}, "inbound_nodes": [[["conv2d_648", 0, 0, {}]]]}, {"name": "conv2d_649", "class_name": "Conv2D", "config": {"name": "conv2d_649", "trainable": true, "filters": 192, "kernel_size": [1, 1], "strides": [1, 1], "padding": "same", "data_format": "channels_last", "dilation_rate": [1, 1], "activation": "linear", "use_bias": false, "kernel_initializer": {"class_name": "VarianceScaling", "config": {"scale": 1.0, "mode": "fan_avg", "distribution": "uniform", "seed": null}}, "bias_initializer": {"class_name": "Zeros", "config": {}}, "kernel_regularizer": null, "bias_regularizer": null, "activity_regularizer": null, "kernel_constraint": null, "bias_constraint": null}, "inbound_nodes": [[["average_pooling2d_62", 0, 0, {}]]]}, {"name": "batch_normalization_641", "class_name": "BatchNormalization", "config": {"name": "batch_normalization_641", "trainable": true, "axis": 3, "momentum": 0.99, "epsilon": 0.001, "center": true, "scale": false, "beta_initializer": {"class_name": "Zeros", "config": {}}, "gamma_initializer": {"class_name": "Ones", "config": {}}, "moving_mean_initializer": {"class_name": "Zeros", "config": {}}, "moving_variance_initializer": {"class_name": "Ones", "config": {}}, "beta_regularizer": null, "gamma_regularizer": null, "beta_constraint": null, "gamma_constraint": null}, "inbound_nodes": [[["conv2d_641", 0, 0, {}]]]}, {"name": "activation_643", "class_name": "Activation", "config": {"name": "activation_643", "trainable": true, "activation": "relu"}, "inbound_nodes": [[["batch_normalization_643", 0, 0, {}]]]}, {"name": "activation_644", "class_name": "Activation", "config": {"name": "activation_644", "trainable": true, "activation": "relu"}, "inbound_nodes": [[["batch_normalization_644", 0, 0, {}]]]}, {"name": "activation_647", "class_name": "Activation", "config": {"name": "activation_647", "trainable": true, "activation": "relu"}, "inbound_nodes": [[["batch_normalization_647", 0, 0, {}]]]}, {"name": "activation_648", "class_name": "Activation", "config": {"name": "activation_648", "trainable": true, "activation": "relu"}, "inbound_nodes": [[["batch_normalization_648", 0, 0, {}]]]}, {"name": "batch_normalization_649", "class_name": "BatchNormalization", "config": {"name": "batch_normalization_649", "trainable": true, "axis": 3, "momentum": 0.99, "epsilon": 0.001, "center": true, "scale": false, "beta_initializer": {"class_name": "Zeros", "config": {}}, "gamma_initializer": {"class_name": "Ones", "config": {}}, "moving_mean_initializer": {"class_name": "Zeros", "config": {}}, "moving_variance_initializer": {"class_name": "Ones", "config": {}}, "beta_regularizer": null, "gamma_regularizer": null, "beta_constraint": null, "gamma_constraint": null}, "inbound_nodes": [[["conv2d_649", 0, 0, {}]]]}, {"name": "activation_641", "class_name": "Activation", "config": {"name": "activation_641", "trainable": true, "activation": "relu"}, "inbound_nodes": [[["batch_normalization_641", 0, 0, {}]]]}, {"name": "mixed9_0", "class_name": "Concatenate", "config": {"name": "mixed9_0", "trainable": true, "axis": 3}, "inbound_nodes": [[["activation_643", 0, 0, {}], ["activation_644", 0, 0, {}]]]}, {"name": "concatenate_13", "class_name": "Concatenate", "config": {"name": "concatenate_13", "trainable": true, "axis": 3}, "inbound_nodes": [[["activation_647", 0, 0, {}], ["activation_648", 0, 0, {}]]]}, {"name": "activation_649", "class_name": "Activation", "config": {"name": "activation_649", "trainable": true, "activation": "relu"}, "inbound_nodes": [[["batch_normalization_649", 0, 0, {}]]]}, {"name": "mixed9", "class_name": "Concatenate", "config": {"name": "mixed9", "trainable": true, "axis": 3}, "inbound_nodes": [[["activation_641", 0, 0, {}], ["mixed9_0", 0, 0, {}], ["concatenate_13", 0, 0, {}], ["activation_649", 0, 0, {}]]]}, {"name": "conv2d_654", "class_name": "Conv2D", "config": {"name": "conv2d_654", "trainable": true, "filters": 448, "kernel_size": [1, 1], "strides": [1, 1], "padding": "same", "data_format": "channels_last", "dilation_rate": [1, 1], "activation": "linear", "use_bias": false, "kernel_initializer": {"class_name": "VarianceScaling", "config": {"scale": 1.0, "mode": "fan_avg", "distribution": "uniform", "seed": null}}, "bias_initializer": {"class_name": "Zeros", "config": {}}, "kernel_regularizer": null, "bias_regularizer": null, "activity_regularizer": null, "kernel_constraint": null, "bias_constraint": null}, "inbound_nodes": [[["mixed9", 0, 0, {}]]]}, {"name": "batch_normalization_654", "class_name": "BatchNormalization", "config": {"name": "batch_normalization_654", "trainable": true, "axis": 3, "momentum": 0.99, "epsilon": 0.001, "center": true, "scale": false, "beta_initializer": {"class_name": "Zeros", "config": {}}, "gamma_initializer": {"class_name": "Ones", "config": {}}, "moving_mean_initializer": {"class_name": "Zeros", "config": {}}, "moving_variance_initializer": {"class_name": "Ones", "config": {}}, "beta_regularizer": null, "gamma_regularizer": null, "beta_constraint": null, "gamma_constraint": null}, "inbound_nodes": [[["conv2d_654", 0, 0, {}]]]}, {"name": "activation_654", "class_name": "Activation", "config": {"name": "activation_654", "trainable": true, "activation": "relu"}, "inbound_nodes": [[["batch_normalization_654", 0, 0, {}]]]}, {"name": "conv2d_651", "class_name": "Conv2D", "config": {"name": "conv2d_651", "trainable": true, "filters": 384, "kernel_size": [1, 1], "strides": [1, 1], "padding": "same", "data_format": "channels_last", "dilation_rate": [1, 1], "activation": "linear", "use_bias": false, "kernel_initializer": {"class_name": "VarianceScaling", "config": {"scale": 1.0, "mode": "fan_avg", "distribution": "uniform", "seed": null}}, "bias_initializer": {"class_name": "Zeros", "config": {}}, "kernel_regularizer": null, "bias_regularizer": null, "activity_regularizer": null, "kernel_constraint": null, "bias_constraint": null}, "inbound_nodes": [[["mixed9", 0, 0, {}]]]}, {"name": "conv2d_655", "class_name": "Conv2D", "config": {"name": "conv2d_655", "trainable": true, "filters": 384, "kernel_size": [3, 3], "strides": [1, 1], "padding": "same", "data_format": "channels_last", "dilation_rate": [1, 1], "activation": "linear", "use_bias": false, "kernel_initializer": {"class_name": "VarianceScaling", "config": {"scale": 1.0, "mode": "fan_avg", "distribution": "uniform", "seed": null}}, "bias_initializer": {"class_name": "Zeros", "config": {}}, "kernel_regularizer": null, "bias_regularizer": null, "activity_regularizer": null, "kernel_constraint": null, "bias_constraint": null}, "inbound_nodes": [[["activation_654", 0, 0, {}]]]}, {"name": "batch_normalization_651", "class_name": "BatchNormalization", "config": {"name": "batch_normalization_651", "trainable": true, "axis": 3, "momentum": 0.99, "epsilon": 0.001, "center": true, "scale": false, "beta_initializer": {"class_name": "Zeros", "config": {}}, "gamma_initializer": {"class_name": "Ones", "config": {}}, "moving_mean_initializer": {"class_name": "Zeros", "config": {}}, "moving_variance_initializer": {"class_name": "Ones", "config": {}}, "beta_regularizer": null, "gamma_regularizer": null, "beta_constraint": null, "gamma_constraint": null}, "inbound_nodes": [[["conv2d_651", 0, 0, {}]]]}, {"name": "batch_normalization_655", "class_name": "BatchNormalization", "config": {"name": "batch_normalization_655", "trainable": true, "axis": 3, "momentum": 0.99, "epsilon": 0.001, "center": true, "scale": false, "beta_initializer": {"class_name": "Zeros", "config": {}}, "gamma_initializer": {"class_name": "Ones", "config": {}}, "moving_mean_initializer": {"class_name": "Zeros", "config": {}}, "moving_variance_initializer": {"class_name": "Ones", "config": {}}, "beta_regularizer": null, "gamma_regularizer": null, "beta_constraint": null, "gamma_constraint": null}, "inbound_nodes": [[["conv2d_655", 0, 0, {}]]]}, {"name": "activation_651", "class_name": "Activation", "config": {"name": "activation_651", "trainable": true, "activation": "relu"}, "inbound_nodes": [[["batch_normalization_651", 0, 0, {}]]]}, {"name": "activation_655", "class_name": "Activation", "config": {"name": "activation_655", "trainable": true, "activation": "relu"}, "inbound_nodes": [[["batch_normalization_655", 0, 0, {}]]]}, {"name": "conv2d_652", "class_name": "Conv2D", "config": {"name": "conv2d_652", "trainable": true, "filters": 384, "kernel_size": [1, 3], "strides": [1, 1], "padding": "same", "data_format": "channels_last", "dilation_rate": [1, 1], "activation": "linear", "use_bias": false, "kernel_initializer": {"class_name": "VarianceScaling", "config": {"scale": 1.0, "mode": "fan_avg", "distribution": "uniform", "seed": null}}, "bias_initializer": {"class_name": "Zeros", "config": {}}, "kernel_regularizer": null, "bias_regularizer": null, "activity_regularizer": null, "kernel_constraint": null, "bias_constraint": null}, "inbound_nodes": [[["activation_651", 0, 0, {}]]]}, {"name": "conv2d_653", "class_name": "Conv2D", "config": {"name": "conv2d_653", "trainable": true, "filters": 384, "kernel_size": [3, 1], "strides": [1, 1], "padding": "same", "data_format": "channels_last", "dilation_rate": [1, 1], "activation": "linear", "use_bias": false, "kernel_initializer": {"class_name": "VarianceScaling", "config": {"scale": 1.0, "mode": "fan_avg", "distribution": "uniform", "seed": null}}, "bias_initializer": {"class_name": "Zeros", "config": {}}, "kernel_regularizer": null, "bias_regularizer": null, "activity_regularizer": null, "kernel_constraint": null, "bias_constraint": null}, "inbound_nodes": [[["activation_651", 0, 0, {}]]]}, {"name": "conv2d_656", "class_name": "Conv2D", "config": {"name": "conv2d_656", "trainable": true, "filters": 384, "kernel_size": [1, 3], "strides": [1, 1], "padding": "same", "data_format": "channels_last", "dilation_rate": [1, 1], "activation": "linear", "use_bias": false, "kernel_initializer": {"class_name": "VarianceScaling", "config": {"scale": 1.0, "mode": "fan_avg", "distribution": "uniform", "seed": null}}, "bias_initializer": {"class_name": "Zeros", "config": {}}, "kernel_regularizer": null, "bias_regularizer": null, "activity_regularizer": null, "kernel_constraint": null, "bias_constraint": null}, "inbound_nodes": [[["activation_655", 0, 0, {}]]]}, {"name": "conv2d_657", "class_name": "Conv2D", "config": {"name": "conv2d_657", "trainable": true, "filters": 384, "kernel_size": [3, 1], "strides": [1, 1], "padding": "same", "data_format": "channels_last", "dilation_rate": [1, 1], "activation": "linear", "use_bias": false, "kernel_initializer": {"class_name": "VarianceScaling", "config": {"scale": 1.0, "mode": "fan_avg", "distribution": "uniform", "seed": null}}, "bias_initializer": {"class_name": "Zeros", "config": {}}, "kernel_regularizer": null, "bias_regularizer": null, "activity_regularizer": null, "kernel_constraint": null, "bias_constraint": null}, "inbound_nodes": [[["activation_655", 0, 0, {}]]]}, {"name": "average_pooling2d_63", "class_name": "AveragePooling2D", "config": {"name": "average_pooling2d_63", "trainable": true, "pool_size": [3, 3], "padding": "same", "strides": [1, 1], "data_format": "channels_last"}, "inbound_nodes": [[["mixed9", 0, 0, {}]]]}, {"name": "conv2d_650", "class_name": "Conv2D", "config": {"name": "conv2d_650", "trainable": true, "filters": 320, "kernel_size": [1, 1], "strides": [1, 1], "padding": "same", "data_format": "channels_last", "dilation_rate": [1, 1], "activation": "linear", "use_bias": false, "kernel_initializer": {"class_name": "VarianceScaling", "config": {"scale": 1.0, "mode": "fan_avg", "distribution": "uniform", "seed": null}}, "bias_initializer": {"class_name": "Zeros", "config": {}}, "kernel_regularizer": null, "bias_regularizer": null, "activity_regularizer": null, "kernel_constraint": null, "bias_constraint": null}, "inbound_nodes": [[["mixed9", 0, 0, {}]]]}, {"name": "batch_normalization_652", "class_name": "BatchNormalization", "config": {"name": "batch_normalization_652", "trainable": true, "axis": 3, "momentum": 0.99, "epsilon": 0.001, "center": true, "scale": false, "beta_initializer": {"class_name": "Zeros", "config": {}}, "gamma_initializer": {"class_name": "Ones", "config": {}}, "moving_mean_initializer": {"class_name": "Zeros", "config": {}}, "moving_variance_initializer": {"class_name": "Ones", "config": {}}, "beta_regularizer": null, "gamma_regularizer": null, "beta_constraint": null, "gamma_constraint": null}, "inbound_nodes": [[["conv2d_652", 0, 0, {}]]]}, {"name": "batch_normalization_653", "class_name": "BatchNormalization", "config": {"name": "batch_normalization_653", "trainable": true, "axis": 3, "momentum": 0.99, "epsilon": 0.001, "center": true, "scale": false, "beta_initializer": {"class_name": "Zeros", "config": {}}, "gamma_initializer": {"class_name": "Ones", "config": {}}, "moving_mean_initializer": {"class_name": "Zeros", "config": {}}, "moving_variance_initializer": {"class_name": "Ones", "config": {}}, "beta_regularizer": null, "gamma_regularizer": null, "beta_constraint": null, "gamma_constraint": null}, "inbound_nodes": [[["conv2d_653", 0, 0, {}]]]}, {"name": "batch_normalization_656", "class_name": "BatchNormalization", "config": {"name": "batch_normalization_656", "trainable": true, "axis": 3, "momentum": 0.99, "epsilon": 0.001, "center": true, "scale": false, "beta_initializer": {"class_name": "Zeros", "config": {}}, "gamma_initializer": {"class_name": "Ones", "config": {}}, "moving_mean_initializer": {"class_name": "Zeros", "config": {}}, "moving_variance_initializer": {"class_name": "Ones", "config": {}}, "beta_regularizer": null, "gamma_regularizer": null, "beta_constraint": null, "gamma_constraint": null}, "inbound_nodes": [[["conv2d_656", 0, 0, {}]]]}, {"name": "batch_normalization_657", "class_name": "BatchNormalization", "config": {"name": "batch_normalization_657", "trainable": true, "axis": 3, "momentum": 0.99, "epsilon": 0.001, "center": true, "scale": false, "beta_initializer": {"class_name": "Zeros", "config": {}}, "gamma_initializer": {"class_name": "Ones", "config": {}}, "moving_mean_initializer": {"class_name": "Zeros", "config": {}}, "moving_variance_initializer": {"class_name": "Ones", "config": {}}, "beta_regularizer": null, "gamma_regularizer": null, "beta_constraint": null, "gamma_constraint": null}, "inbound_nodes": [[["conv2d_657", 0, 0, {}]]]}, {"name": "conv2d_658", "class_name": "Conv2D", "config": {"name": "conv2d_658", "trainable": true, "filters": 192, "kernel_size": [1, 1], "strides": [1, 1], "padding": "same", "data_format": "channels_last", "dilation_rate": [1, 1], "activation": "linear", "use_bias": false, "kernel_initializer": {"class_name": "VarianceScaling", "config": {"scale": 1.0, "mode": "fan_avg", "distribution": "uniform", "seed": null}}, "bias_initializer": {"class_name": "Zeros", "config": {}}, "kernel_regularizer": null, "bias_regularizer": null, "activity_regularizer": null, "kernel_constraint": null, "bias_constraint": null}, "inbound_nodes": [[["average_pooling2d_63", 0, 0, {}]]]}, {"name": "batch_normalization_650", "class_name": "BatchNormalization", "config": {"name": "batch_normalization_650", "trainable": true, "axis": 3, "momentum": 0.99, "epsilon": 0.001, "center": true, "scale": false, "beta_initializer": {"class_name": "Zeros", "config": {}}, "gamma_initializer": {"class_name": "Ones", "config": {}}, "moving_mean_initializer": {"class_name": "Zeros", "config": {}}, "moving_variance_initializer": {"class_name": "Ones", "config": {}}, "beta_regularizer": null, "gamma_regularizer": null, "beta_constraint": null, "gamma_constraint": null}, "inbound_nodes": [[["conv2d_650", 0, 0, {}]]]}, {"name": "activation_652", "class_name": "Activation", "config": {"name": "activation_652", "trainable": true, "activation": "relu"}, "inbound_nodes": [[["batch_normalization_652", 0, 0, {}]]]}, {"name": "activation_653", "class_name": "Activation", "config": {"name": "activation_653", "trainable": true, "activation": "relu"}, "inbound_nodes": [[["batch_normalization_653", 0, 0, {}]]]}, {"name": "activation_656", "class_name": "Activation", "config": {"name": "activation_656", "trainable": true, "activation": "relu"}, "inbound_nodes": [[["batch_normalization_656", 0, 0, {}]]]}, {"name": "activation_657", "class_name": "Activation", "config": {"name": "activation_657", "trainable": true, "activation": "relu"}, "inbound_nodes": [[["batch_normalization_657", 0, 0, {}]]]}, {"name": "batch_normalization_658", "class_name": "BatchNormalization", "config": {"name": "batch_normalization_658", "trainable": true, "axis": 3, "momentum": 0.99, "epsilon": 0.001, "center": true, "scale": false, "beta_initializer": {"class_name": "Zeros", "config": {}}, "gamma_initializer": {"class_name": "Ones", "config": {}}, "moving_mean_initializer": {"class_name": "Zeros", "config": {}}, "moving_variance_initializer": {"class_name": "Ones", "config": {}}, "beta_regularizer": null, "gamma_regularizer": null, "beta_constraint": null, "gamma_constraint": null}, "inbound_nodes": [[["conv2d_658", 0, 0, {}]]]}, {"name": "activation_650", "class_name": "Activation", "config": {"name": "activation_650", "trainable": true, "activation": "relu"}, "inbound_nodes": [[["batch_normalization_650", 0, 0, {}]]]}, {"name": "mixed9_1", "class_name": "Concatenate", "config": {"name": "mixed9_1", "trainable": true, "axis": 3}, "inbound_nodes": [[["activation_652", 0, 0, {}], ["activation_653", 0, 0, {}]]]}, {"name": "concatenate_14", "class_name": "Concatenate", "config": {"name": "concatenate_14", "trainable": true, "axis": 3}, "inbound_nodes": [[["activation_656", 0, 0, {}], ["activation_657", 0, 0, {}]]]}, {"name": "activation_658", "class_name": "Activation", "config": {"name": "activation_658", "trainable": true, "activation": "relu"}, "inbound_nodes": [[["batch_normalization_658", 0, 0, {}]]]}, {"name": "mixed10", "class_name": "Concatenate", "config": {"name": "mixed10", "trainable": true, "axis": 3}, "inbound_nodes": [[["activation_650", 0, 0, {}], ["mixed9_1", 0, 0, {}], ["concatenate_14", 0, 0, {}], ["activation_658", 0, 0, {}]]]}, {"name": "global_average_pooling2d_7", "class_name": "GlobalAveragePooling2D", "config": {"name": "global_average_pooling2d_7", "trainable": true, "data_format": "channels_last"}, "inbound_nodes": [[["mixed10", 0, 0, {}]]]}, {"name": "dense_12", "class_name": "Dense", "config": {"name": "dense_12", "trainable": true, "units": 1024, "activation": "relu", "use_bias": true, "kernel_initializer": {"class_name": "VarianceScaling", "config": {"scale": 1.0, "mode": "fan_avg", "distribution": "uniform", "seed": null}}, "bias_initializer": {"class_name": "Zeros", "config": {}}, "kernel_regularizer": null, "bias_regularizer": null, "activity_regularizer": null, "kernel_constraint": null, "bias_constraint": null}, "inbound_nodes": [[["global_average_pooling2d_7", 0, 0, {}]]]}, {"name": "dense_13", "class_name": "Dense", "config": {"name": "dense_13", "trainable": true, "units": 4, "activation": "softmax", "use_bias": true, "kernel_initializer": {"class_name": "VarianceScaling", "config": {"scale": 1.0, "mode": "fan_avg", "distribution": "uniform", "seed": null}}, "bias_initializer": {"class_name": "Zeros", "config": {}}, "kernel_regularizer": null, "bias_regularizer": null, "activity_regularizer": null, "kernel_constraint": null, "bias_constraint": null}, "inbound_nodes": [[["dense_12", 0, 0, {}]]]}], "input_layers": [["input_7", 0, 0]], "output_layers": [["dense_13", 0, 0]]}, "keras_version": "2.2.4", "backend": "tensorflow"}